models/tensorflow-lite-float32-model.lite (tflite, 48216 bytes, 42 tensors)

model_1/bn_Conv1/FusedBatchNormV3 f4 [8]
00000000: 26d2 7640 f021 5abf b2c3 8740 8100 553f
00000010: 0151 0e40 d221 7740 866e fa3d fab7 3140
3.8565764 -0.85208035 4.2426386 0.83203894 2.223694 3.8614392 0.12228112 2.776854

model_1/expanded_conv_depthwise_BN/FusedBatchNormV3 f4 [8]
00000000: a319 ee3f f23a 45be 1935 1040 ccb5 3f3f
00000010: 56f2 5a3f 7856 31bd 705f 023e 74f7 743f
1.8601574 -0.19260767 2.2532408 0.74886775 0.85526025 -0.043295354 0.12731719 0.95690084

model_1/block_1_expand_BN/FusedBatchNormV3 f4 [48]
00000000: c9e1 72bf 307c c1bf 5d2d 813f 41e1 993f
00000010: d47f 2140 3373 1c40 1f33 8240 714a c83e
00000020: c6db fbbe b128 4ac0 990a bb3f d44b bb3f
00000030: e6fd cd3f 6e8c 87c0 eab0 5a3e 851a 153f
00000040: e65f d4bf c722 1f3f 1422 8f3e 66da a83f
00000050: 80ea e4bb afe3 a840 2c29 a8be 9ab5 0a3f
00000060: f0a4 5940 243a 0140 2700 9440 c97c 7fc0
00000070: 530f d03f 3e27 f4be 7f58 543d 4a69 44c0
00000080: 046f fe3f 77de a93f 7760 6140 3ae5 6abe
00000090: 4e07 48c0 880b da3e a14c 61c0 f6bd debf
000000a0: 9e7a 8ec0 876a 1ec0 0064 dd3b d3b0 a33f
000000b0: 80a0 8d3f a9f9 64c0 2cb7 283f c479 01bf
-0.9487577 -1.5116024 1.0091969 1.2021867 2.523427 2.4445312 4.0687404 0.39119294
-0.4919111 -3.1587336 1.4612609 1.4632516 1.6093109 -4.2358923 0.2135655 0.5824359
-1.6591766 0.6216244 0.27955687 1.319165 -0.0069859624 5.2777934 -0.32843912 0.5418335
3.400692 2.0191736 4.6250186 -3.9919913 1.6254677 -0.4768619 0.05184221 -3.0689263
1.9877629 1.3271016 3.5215127 -0.22939005 -3.1254458 0.42586923 -3.520302 -1.7401721
-4.452468 -2.475252 0.0067563057 1.2788337 1.1064606 -3.577738 0.659045 -0.50576425

model_1/block_1_depthwise_BN/FusedBatchNormV3 f4 [48]
00000000: 6a3c 0d3f c1b5 03bf d2ea d13d 36f5 ffbe
00000010: e82b 863f 9ea2 a9bd 1413 74be c37a ab3f
00000020: 18a8 bb3c 2c37 46bd 805b b0bd b7ea 53be
00000030: ea4b 4040 3c50 debd 80c7 9e3b 80dc 38bf
00000040: 46b6 0640 4ac0 463e ee71 cdbf b176 4740
00000050: b7ea c8be 56ec bc3f e024 09bf 3f9f 60be
00000060: 6fb4 94be 22e1 7ac0 6986 873f 521d 24be
00000070: 399f 303f 98e0 1fbe 546b f53d 917d b73e
00000080: 3ee4 7940 a934 483f 5687 cd3f a83c 20bd
00000090: 3075 5c3f eced 4ebe e209 353f ff20 82bf
000000a0: 2439 4dbe b664 6abf 6a54 7c3f fe43 1abf
000000b0: 517e b540 0bc8 933d c8de 7abf 6e7c 42c0
0.5517031 -0.5144921 0.102498665 -0.4999177 1.0482149 -0.0828297 -0.23835403 1.3396839
0.022907302 -0.04839246 -0.08611202 -0.20695005 3.0046334 -0.10855147 0.0048455596 -0.72211456
2.104875 0.1940929 -1.6050394 3.1166193 -0.39241573 1.4759624 -0.5357189 -0.21935748
-0.2904391 -3.919991 1.0587894 -0.1602681 0.68992954 -0.1561302 0.11983362 0.35837987
3.9045558 0.78205353 1.6056926 -0.039120346 0.86116314 -0.20207947 0.70718205 -1.016632
-0.20041329 -0.9155992 0.98566306 -0.6026 5.6716695 0.072158895 -0.9799619 -3.0388446

model_1/block_2_expand_BN/FusedBatchNormV3 f4 [48]
00000000: 62d7 5c3f 431d 4f3f 2262 2a3f f0ff 8c3f
00000010: 70e2 ed3e 4f9f 113f 5045 3d3f c86a 753f
00000020: 09c6 b83e 2978 543f 9a04 253f 51d1 3e3f
00000030: 1314 353f 44b6 eb3e 1f9a 4e3f d6aa 0b3e
00000040: 244c 463e 5352 6abf ad6c 693f b2be 9c3f
00000050: 01c3 5b3f ded6 693f f6c7 673f f97b fc3e
00000060: f919 113f 4f5b 443f 91e3 143f fb68 293d
00000070: 785f e0be b1ed 9b3f 9455 543f 74ae ea3e
00000080: e66c d53e ef6b 2e3d 1b18 173f 08f6 65be
00000090: ec45 dd3e 2626 d53e 117c 0f3e da04 2c3f
000000a0: 1cf3 8e3e fb19 663f 2028 b83e 860f 8f3e
000000b0: c836 f73e f034 543f 2ad7 c6be 76fe 9d3f
0.8626615 0.80904025 0.6655599 1.1015606 0.4646182 0.5688371 0.7393389 0.9586606
0.3608859 0.8299585 0.64460146 0.7453814 0.70733756 0.46037495 0.8070392 0.13639387
0.19364983 -0.91531867 0.9118145 1.2245696 0.8584443 0.91343486 0.9053949 0.49313334
0.56680256 0.76701826 0.5815974 0.041359883 -0.43822837 1.2181913 0.8294308 0.45836222
0.41684645 0.042583402 0.5902116 -0.22457135 0.4321741 0.41630667 0.14012171 0.671949
0.27919853 0.89883393 0.35968113 0.2794153 0.48283982 0.82893276 -0.38836032 1.234328

model_1/block_2_depthwise_BN/FusedBatchNormV3 f4 [48]
00000000: d69e 0f40 51eb 2840 7ad2 9dbf 1b65 2440
00000010: c5fb 373f 1e34 f6be 526d 143f 8222 123f
00000020: ea4d fc3e b8ec 8e3f 00f4 d3bd b36f 813f
00000030: 699d b7be 0a66 a43e 56d2 ae3f 84a2 17bf
00000040: 5476 89be 63d8 44bf d2a6 07c0 7c5d 3bbe
00000050: f232 d43f 1de4 a13f 5be0 e6bf 684a 54bd
00000060: 6e0b d1bf ea1a 7fbf c4cd 513e d1dd 883f
00000070: 4aaa d9be d099 973d dfd1 253f 985f f1bd
00000080: b75c ff3e 633e a1be 6bde 25be 771f 893f
00000090: 6eb2 35bf 9e29 863e 3405 57be a68c 7b3f
000000a0: 5e0c 943f ffdf 26bf 62b7 0c3f f214 0f3f
000000b0: 7ccd 353f 68cb 173f e6df 3abf db3b 6a40
2.2440696 2.6393626 -1.2329857 2.568671 0.71868545 -0.48086637 0.5797931 0.57083905
0.49278194 1.1165991 -0.10349274 1.0112213 -0.35862282 0.321091 1.365794 -0.59232354
-0.2684809 -0.7689268 -2.119557 -0.1829738 1.6578047 1.264774 -1.8037218 -0.05182877
-1.6331613 -0.9965044 0.2048865 1.0692693 -0.42512733 0.07402384 0.6477336 -0.11785811
0.49875423 -0.3149291 -0.16198127 1.0712727 -0.7097539 0.26203626 -0.20998079 0.9826149
1.1566274 -0.6518554 0.5496732 0.55891335 0.7101667 0.5929475 -0.7299789 3.6599033

model_1/block_3_expand_BN/FusedBatchNormV3 f4 [48]
00000000: 67da 163f b204 0e3f 723f 943e 8a45 32be
00000010: 05e6 b3be 27d8 773e c7ed 363f b095 483f
00000020: 2654 2d3f a189 f3be 9991 f33e c815 1abe
00000030: 6559 013f a397 973d 63d5 b33e 14b5 babe
00000040: e794 febe f700 183f c028 0a3e d87f ee3e
00000050: 7c89 fabd 5b7f ca3f 90ad 043f a5b6 6bbe
00000060: 7e82 0a3e 4e13 453f c040 263f 2914 15bf
00000070: fc9e a03d 2f7f 093e 95ce 00bf d36c eabe
00000080: 70e9 ec3e 38bc ad3e 000d 713f 1d49 7a3f
00000090: a40b 463f 5bf5 6f3f 73bd 0cbf eedf 6dbe
000000a0: be3b 27be 8005 8f3e 69ba 353e cf99 d13d
000000b0: 27f8 10bf 7af7 03bf 787b 293f c0d0 123e
0.58927006 0.55475914 0.28954655 -0.1740934 -0.35136428 0.2420355 0.7145657 0.78353405
0.67706525 -0.4756594 0.4757202 -0.15047371 0.5052703 0.07401969 0.3512374 -0.36466277
-0.49722978 0.5937647 0.13492107 0.46581912 -0.12233254 1.5820116 0.51827335 -0.23018892
0.13526341 0.7698258 0.6494255 -0.58233887 0.07842824 0.13427423 -0.5031522 -0.4578615
0.4627185 0.33932662 0.9416046 0.9776781 0.7736151 0.9373376 -0.54976577 -0.23229954
-0.16331384 0.27933884 0.17746891 0.10234415 -0.5662865 -0.51549494 0.66204023 0.14337444

model_1/block_3_depthwise_BN/FusedBatchNormV3 f4 [48]
00000000: 5cb8 9f3f 0190 1340 1f23 5b3f 3884 bd3e
00000010: 91f4 483f 6635 e33f 3c07 3e3f ec2c 0c40
00000020: 1d21 e43f 08dc 773d 687d 0a3e ed27 853f
00000030: 49e6 813f f0f6 ef3c 5788 8c3f ed1c 973e
00000040: 65d2 db3e 6e33 c63f e880 233f 08c2 10bf
00000050: 52fe df3e e629 33c0 aff0 1fbf 5492 1abe
00000060: 62cb d13f 4acc 2640 3439 22be 2296 ccbd
00000070: 80bf 843b 0cd9 263f e0df cbbc acdd 253f
00000080: 2dcf 44bf 23db 183f fb91 1c40 dadc 3540
00000090: d1dc aa3f b2ec 5e40 2839 dfbc f6e4 173e
000000a0: 51f9 653e 4ea2 ab3f e055 6bbd c03d 28bd
000000b0: d9d3 8ebe c8ae d73d 9efe 0240 6c66 b33f
1.2478137 2.3056643 0.85600466 0.37014937 0.7849818 1.7750671 0.7422979 2.1902418
1.7822605 0.060512573 0.13524401 1.0402809 1.0148402 0.029292554 1.0979108 0.29514256
0.42933956 1.5484445 0.6386857 -0.5654607 0.43748719 -2.7994323 -0.6247663 -0.15094882
1.6390193 2.6062188 -0.15842134 -0.09989573 0.004051149 0.6517494 -0.024887025 0.6479137
-0.76878625 0.59709376 2.44641 2.8416047 1.3348638 3.4831967 -0.027248934 0.14833435
0.22458388 1.3408906 -0.057454944 -0.041074514 -0.27896002 0.10531384 2.0467906 1.4015632

model_1/block_4_expand_BN/FusedBatchNormV3 f4 [48]
00000000: 3b65 983f 49d3 2a3e 7d88 c23e f7b3 a23e
00000010: a6bf fb3e 3a68 e13d f05c 683e f9b0 623d
00000020: 7214 863f a2c7 6d3f 58d9 29be f253 4c3d
00000030: ec10 153f 23a7 c23e 1d0a a63e 4dc5 083f
00000040: 1951 d53e 1193 523f 2fd8 babe 9e97 dabd
00000050: ff82 1a3f a332 893e 9ca3 473f 730b 973e
00000060: 31da 073f a7af 573f 2fa9 173f 56dc ebbd
00000070: 0e55 943f af04 e63c 5ddf 503f d78a 4c3f
00000080: c7eb 6d3f f8e4 673e 9d9c 4c3e ad2d 263f
00000090: a00e 403f 7f7c 9e3e 8c7c f73e 4ef9 7e3d
000000a0: d45c debd ba6f 243f 6a7e 503f 7792 2f3f
000000b0: a4cf 3f3f 415b 733e 4294 09be cb0e 643f
1.1905893 0.16682161 0.37994757 0.31777927 0.49169654 0.11006208 0.22691703 0.055344556
1.047499 0.9288274 -0.16586816 0.049884744 0.58228946 0.3801814 0.3242959 0.5342606
0.41663435 0.82255656 -0.3649306 -0.1067345 0.60356134 0.26796445 0.77984023 0.29500923
0.5306731 0.842524 0.5924253 -0.11516635 1.1588457 0.028078405 0.81590825 0.7989935
0.9293789 0.22645938 0.19981618 0.64913446 0.75022316 0.30954358 0.4833721 0.062249474
-0.10857549 0.6423298 0.8144289 0.6858286 0.7492621 0.2376528 -0.13435462 0.8908507

model_1/block_4_depthwise_BN/FusedBatchNormV3 f4 [48]
00000000: 9bb7 1140 c208 9e3f 8c42 723f bea7 3f3f
00000010: 2259 c93f 6d1a aabe c79c eabe 4c14 f7bd
00000020: ec5e 513f 10b8 f6bf 5c9c 2cbf 2c16 86bd
00000030: cc54 a53f 790a 893f 3dfc 2040 9cba c4bd
00000040: 8321 a63f 504a cc3f 5469 873f a7f0 6abf
00000050: b195 843f 527e c2be 9847 923f e984 f43e
00000060: 02ef 793f fcf3 a63f 7cc9 15bf ddcb 073f
00000070: c237 babf 1dcd 633e 397f be3f 290e 0d3f
00000080: 9d98 433f 76b2 89bf aab7 cdbe 28a9 cb3e
00000090: b38f 523f c750 a4bf 1478 06bf ef05 873e
000000a0: 94e5 483f 1343 67bf 5315 063f d5ad 98bf
000000b0: 4aed c0bf e289 af3f 303f 773f 6650 f93e
2.2768314 1.2346423 0.9463279 0.7486533 1.5730326 -0.33223286 -0.45822737 -0.12064418
0.81785464 -1.9274921 -0.67426085 -0.06547198 1.2916503 1.0706321 2.5153954 -0.096059054
1.2978977 1.5960178 1.0579019 -0.91773456 1.0358182 -0.37987 1.1428099 0.47757652
0.9763032 1.3043208 -0.58510566 0.53045446 -1.4548266 0.22246213 1.4882575 0.5509973
0.76404744 -1.0757587 -0.40179187 0.39777493 0.8225052 -1.2837151 -0.52526975 0.26371714
0.7847531 -0.9033672 0.5237629 -1.1928049 -1.5072415 1.3713953 0.9658079 0.48694152

model_1/block_5_expand_BN/FusedBatchNormV3 f4 [48]
00000000: 9811 a9be 8e17 09bf b7e3 fb3e 1345 53be
00000010: b177 e4be 2880 453e f61f f33e a0fc a53f
00000020: 2c49 b13e 8507 443f e839 5f3f 9177 203f
00000030: e5b3 7a3e dee7 323f 791e 463f 8a63 dbbe
00000040: e6ee 993f 4e2d 9a3e 80ac 183d 1fa2 20bf
00000050: 4e1d f23c 8f1b 0fbf 0104 90be 9391 633f
00000060: 9ad0 873e a57a 0e3f c2ce 163f 38e8 49bd
00000070: a31c fb3e 9866 823d b733 af3e 4f65 e6bd
00000080: 3c89 b8be dd86 a6be 2373 d9be 344b 853e
00000090: 167e 0d3f 1a4b ee3e 91ff 0b3f f9ed f93e
000000a0: 468f 223f 656f 003e 8445 693f 3f53 313f
000000b0: f6db 713f 5b53 233f 1d88 c4bd c814 f83d
-0.33021235 -0.53551567 0.4919717 -0.20631818 -0.44622567 0.19287169 0.47485322 1.296772
0.34626138 0.76573974 0.8719773 0.62682444 0.24482687 0.6988505 0.7739025 -0.4284938
1.2026031 0.3011269 0.037273884 -0.6274738 0.02955499 -0.55901426 -0.28128055 0.88894004
0.26526338 0.5565589 0.5890924 -0.049293727 0.49045286 0.063672245 0.34219143 -0.11249792
-0.36042202 -0.32524768 -0.42470655 0.26033938 0.55270517 0.46541673 0.5468684 0.4881437
0.6349987 0.12542494 0.911217 0.6926765 0.9447626 0.63799065 -0.09596274 0.12113339

model_1/block_5_depthwise_BN/FusedBatchNormV3 f4 [48]
00000000: 5047 4b3d 3d4d 57bf 9bb2 073f a6be d0be
00000010: 4231 333e bea4 fdbd 784b a33e 6251 8340
00000020: e770 3ebf 0af1 5c3f 9fac e23f 465a 523e
00000030: f0c1 9b3f 9264 79bf 666b 4b3f 2c5b e9bc
00000040: 60e6 81bf 6f9c 0f3f bcf8 f33e 4974 1bbf
00000050: 7357 4cbf 3216 f9be 86b5 b7bf b92e 263f
00000060: 8913 1dbf 7de9 313f cf09 ae3e b810 513d
00000070: 07ec 20bf dc80 2b3e dd64 bb3f e0f2 d3be
00000080: 2429 cebf 68a6 9b3e 24ea 69bf aa1c bbbe
00000090: c7ab 193f db40 6b3f 6695 d3bf 1e7c 0340
000000a0: e160 d83f de90 24bf 5c7b 0bc0 545c 2dbe
000000b0: 55ee 84bf 4dfc 523f 53f7 193f 1e0b 773f
0.049628556 -0.8410223 0.53006905 -0.40770453 0.17499259 -0.12384938 0.31893516 4.1036844
-0.74391025 0.86305296 1.770893 0.20542249 1.216856 -0.97419083 0.7946075 -0.028485857
-1.014843 0.56098074 0.47650707 -0.6072431 -0.79820937 -0.48649746 -1.4352272 0.64915043
-0.61357933 0.694969 0.33991858 0.051041335 -0.6286015 0.16748375 1.4640156 -0.41396236
-1.6106305 0.30400395 -0.91372895 -0.36545306 0.60027736 0.91895837 -1.6529968 2.0544505
1.6904565 -0.6428355 -2.1794043 -0.16929752 -1.0385233 0.8241623 0.6014301 0.9650134

model_1/block_6_expand_BN/FusedBatchNormV3 f4 [48]
00000000: 2030 1cbe 5801 b93e d852 9f3e ec0f 0c3f
00000010: a001 643f 7765 34be e793 98be 5f1e 4f3f
00000020: fd25 713e 38df 2d3f a76e 5a3e 0fd9 04bf
00000030: ff13 1c3f fb97 17bf 37f8 3f3f 2f57 bebe
00000040: 6d73 a73d fee0 d0bd 1883 ba3e bb91 203f
00000050: cd81 1c3f 3fb1 c13e a9d2 203f b2ac 1e3e
00000060: 3df1 28bf 4d03 c5be 44c1 2a3d 79ed 0a3f
00000070: c576 863e 2d5f 143f 98c5 48be 88a5 da3e
00000080: cd79 293f b58e 353f e020 b33e b205 df3d
00000090: e276 633f 66b9 843e b00f 293d 78f2 b2be
000000a0: 6213 833e c4a1 613f 932f 24be b69f bd3e
000000b0: 8d85 423f 8f08 2bbe ce7a 223e b9de 263f
-0.15252733 0.36133838 0.31117892 0.54711795 0.8906498 -0.17616831 -0.2980034 0.8090572
0.23549648 0.6791873 0.21331273 -0.51893705 0.6096801 -0.5921628 0.7498812 -0.3717589
0.081763126 -0.10199164 0.36428142 0.6272237 0.6113556 0.3783054 0.6282144 0.15495566
-0.659931 -0.3847908 0.04168822 0.54268605 0.2626249 0.57957727 -0.19606626 0.42704415
0.6620148 0.7092088 0.3498602 0.10889758 0.88853276 0.25922698 0.041274726 -0.34950614
0.25600725 0.8813746 -0.16033773 0.37035912 0.7598503 -0.16702484 0.15867159 0.651836

model_1/head/BiasAdd/ReadVariableOp f4 [32]
00000000: c06a f8bb 5b88 413d c58c a9bd 4443 0c3d
00000010: 1b83 a93c 8658 f3bc 3fc4 f83d 34a1 3d3d
00000020: f170 733d 6222 c7bd 8196 ee3c 6507 dfbd
00000030: dbca cdbd 3f0b 36bb 742c 7a3d f7dc 043d
00000040: 68c6 23bc a3ab 363d 61aa 8ebd 8bc0 73bd
00000050: 3a3e f4bd a924 4f3d e4c7 563d 10ad 4cbd
00000060: d0bb 6f3c f136 c7bd c33d babd 922c aabd
00000070: 26cb 293e 9cbe bfbd 3b74 323d a6e3 d6bd
-0.007581085 0.04724918 -0.08278803 0.034243837 0.020692399 -0.029705297 0.12146806 0.046296313
0.05943388 -0.09723355 0.0291245 -0.10890082 -0.10048457 -0.00277777 0.06107755 0.03243729
-0.009996034 0.04459728 -0.06966091 -0.059509795 -0.11925931 0.05057207 0.052436724 -0.049969733
0.01463218 -0.09727276 -0.09093811 -0.08309282 0.16581401 -0.09362528 0.043567877 -0.10492639

model_1/expanded_conv_depthwise_BN/FusedBatchNormV3;model_1/expanded_conv_depthwise/depthwise;model_1/block_5_project/Conv2D f4 [1, 3, 3, 8]
00000000: 3e62 c5bd 9577 21be fc29 b13c 3d8f 0b3e
00000010: dc15 cb3d dc74 8e3e 6ffd 0e3e 7b41 013e
00000020: 0d8f cbbc 953e bc3d a04a ca3c ccf0 69bd
00000030: 74df 503d 318e 9e3f 4e0f 2d3e eeec 133f
00000040: c0dd 0abe 6e43 78bc 2771 26be 8e96 bbbd
00000050: 5fe2 103e befa 443e 7636 2c3e 8ca5 22bc
00000060: fd64 ac3d 0e2d 16c0 6ca8 ebbc 5fe8 bb3c
00000070: b156 90bd 995c 71bd b0bc 9abf a096 aabd
00000080: 5418 f0be 27bd f13f c4e5 0fbf 7581 6740
00000090: 724d 2dbf 7b2c 8cbd e71c df3f 3c4e a2be
000000a0: 0109 72bd a4f4 43bd 1826 16be f6c4 f1bf
000000b0: ec02 723d 1724 2d3d 5ffd 603f 3e3e 5cbe
000000c0: 0850 bc3d 0d3c 15be cd4b 0cbc ab2d 8fbe
000000d0: 6f4c a33d 495f 5dbe 8176 133e f4a9 1b3d
000000e0: ea30 463e 8788 643e 799d 563f 283a 46bf
000000f0: 62ad 093c 507d 89bf 06be 863e 9efd e2bc
00000100: ce26 b7bc 2b3e b43d a331 3fbe c0fc 85be
00000110: 1efb d43d 9767 2abe c42b 923e bbee 6bbd
-0.09637879 -0.15768273 0.021626465 0.1362886 0.09916279 0.27823532 0.13963865 0.12622635
-0.024848485 0.09191624 0.024693787 -0.057114407 0.05099435 1.2387143 0.1690037 0.577834
-0.13561153 -0.015152795 -0.16254102 -0.091595754 0.14148854 0.19236276 0.1681765 -0.009927165
0.084176995 -2.3465 -0.028766833 0.022937952 -0.07047785 -0.0589262 -1.2088833 -0.08329511
-0.4689356 1.888585 -0.5620997 3.6172764 -0.676963 -0.068444215 1.7430695 -0.31700313
-0.059090618 -0.04784073 -0.14662969 -1.8888233 0.059084818 0.042270746 0.87886614 -0.21508119
0.09194952 -0.14573689 -0.008562994 -0.2796453 0.07973563 -0.2161838 0.14400674 0.038003877
0.19354597 0.22317706 0.83834034 -0.7743249 0.008403154 -1.0741367 0.2631685 -0.027708825
-0.02235737 0.0880092 -0.18671279 -0.26169395 0.10399459 -0.16641079 0.28549016 -0.057600718

model_1/expanded_conv_project_BN/FusedBatchNormV3 f4 [8]
00000000: bd4d 423f 4637 37be d61b 9abf c3f2 e8bf
00000010: 0f2d 4d3e 02f7 9fbd 0147 c1be 8263 4d3f
0.7589987 -0.17892179 -1.2039745 -1.8199085 0.2003672 -0.07810785 -0.37749484 0.8022996

model_1/block_1_depthwise_BN/FusedBatchNormV3;model_1/block_1_depthwise/depthwise;model_1/block_6_expand/Conv2D f4 [1, 3, 3, 48]
00000000: de44 563d 24ba 14bf 468b 16c0 7b7d eabf
00000010: c45e 62bd bd8f f1be 7e45 0f3e 226b 69bf
00000020: 5ba8 f33e 2c3a 6c3d 6bf2 063e 7221 283f
00000030: 847b 6dc0 c171 523e 6227 b43e 04d3 80c1
00000040: 129a cd3e 89d0 9ebf 3589 e43e 2cb4 93be
00000050: 050d ffbf 6a3f 18bd a82b e53e 3d99 0a3f
00000060: 7df3 2e3e 1cd3 f03f 57fd 0bbe c213 513f
00000070: 32dd 63c0 e3d2 383d 0166 d23e 4c50 82be
00000080: 1b57 37c0 2977 88bf 127d 063e 0597 d73e
00000090: c52b 09c0 a872 993e 6e57 e33e 3c2a 6c3f
000000a0: b461 dabe 7e16 68bf 4861 233d b89b 5fbc
000000b0: 0d78 06c0 0788 97be dd67 a23f 2fb9 c4bf
000000c0: b2e2 683e 3e9c 61bf 13e0 1440 d568 6040
000000d0: 3f6e 703e 21f2 3a3e 5d67 f33e 3504 8abf
000000e0: 39ff edbe 0fb2 a63f 5e29 a63d 4351 813f
000000f0: 1acd d2ba 53d1 6a3e 9945 943e 0bda 8241
00000100: b44d fb3e 6db3 aebf 9282 8ebf 3f7e b6be
00000110: 1439 9e3f d011 f4be bc12 1c3f 13e7 3c3d
00000120: 5968 423f b764 6a40 60cf 21be 4055 9a3f
00000130: 08ed 473d f84b b13f e103 623e d4d7 5ebe
00000140: b20d c63f 0f77 0c40 31e8 813f 235b 3c3f
00000150: eba7 5dbf 1b3e ab3e e52f bb3e 1d9a 7cbe
00000160: 3e2f fb3e 6989 203f cadb 673c f103 2c3f
00000170: fd9b 5b40 44a6 423f 4d3e 17bf 0452 183d
00000180: cd4b 49bb f852 02bf b6de afbe 2fb8 97bf
00000190: baa8 403c 5c36 ae3e 0cd1 cf3d f317 48bf
000001a0: f421 24bc 25d3 313f 6bd4 9fbd 2250 0e3f
000001b0: 3bba 3840 2ac5 8bbd b4a7 99be 8c8b 293f
000001c0: e809 813e 8cb3 22bf 4d7b d93f 4c63 29be
000001d0: 38ce 4e3e 5d4e 613d 7b39 78bf 2ec2 adbe
000001e0: 5485 863e e343 92be 8669 0bbe debb b23e
000001f0: 751e c23f 1977 ad3e 1785 183d 8118 24bd
00000200: a06a b9be 3e1d 4dbf 532e 983e 121e 123e
00000210: 384a 42be 4c2c f03d 315e 6c3e 7697 ffbe
00000220: 23f5 cfbe cf1d a83f 2ae6 d53e 6504 c73e
00000230: d9ea d9bf 74d4 1dbf 84cb e2be aa65 0940
00000240: 9e80 eb3d 7748 8f3f f3b0 6cc0 2a9c ad3f
00000250: acda e5be 17cc 12bf 7d58 923d 429c 73bf
00000260: 2e1d 213f 6c17 adbf e746 5b3e 938c a7bf
00000270: 494a 0740 aee8 c33e a5c8 123f 7f9c 9141
00000280: ee08 afbe 728c bf3f 01d8 bc3e cd88 8cbe
00000290: 3d51 ee3f 5878 57be 29fa 183f 2781 183f
000002a0: 2be2 8fbd e894 8abc 0f3b 15be f101 9c3e
000002b0: 0928 eebf 5c56 b43f 4aa7 0a3e 1f1d 94be
000002c0: 8024 aec0 1ba0 c8bf 855c 27bf 4b61 d53e
000002d0: 411e 6bbe 274b a03e 9ca6 cc3e 7fb5 bd3f
000002e0: 764e cebe d4d2 4dbf 4133 c2be 3631 a23e
000002f0: 385c 17bf e53c 6abe c86a 1bc1 3ca0 23c0
00000300: ed30 713e 6751 ee3f e256 6640 3a4d 983e
00000310: 03a2 11bf 638f 893d d0c8 bb3e e48e 55bf
00000320: 5631 0bbf 9db7 04c0 fc1a 293e 985a cabf
00000330: 5541 d03e d524 af3e ef1b bb3e 2768 83c1
00000340: 3912 16be 9166 d13f eaed 2140 aed5 9ebe
00000350: d37e 49bf 7087 1fbf 544c 613f 610a abbd
00000360: 29f1 803e 324e 4d3e f324 1cbf b998 8c3f
00000370: e727 91be 6517 cf3f 2fcc af3e 4764 c6be
00000380: 0909 8740 f20a 1140 2e83 04bf d70d 333e
00000390: 5461 203e 2422 de3e dfe6 bb3e 9934 afbe
000003a0: 6c23 463f 3678 fbbc 9308 0bbd 5bca 533f
000003b0: df90 5ebf 9725 623f f786 2e41 58ca 973f
000003c0: 063a 683c 52d1 513f d81b ebbd 9b28 983f
000003d0: 4e7f 01be be56 cb3e 76c4 493e c875 87bf
000003e0: 832a 0dbe 1b91 d3bf 0adc e4bd 4585 62bf
000003f0: 8615 92c0 4ada f0bd 6705 fbbe 3b12 3e3d
0.05231177 -0.5809653 -2.3522506 -1.8319544 -0.055266157 -0.47179976 0.13991353 -0.91179097
0.47589383 0.057672665 0.13178413 0.65676033 -3.7106638 0.20551206 0.35186297 -16.103035
0.4015661 -1.240739 0.4463593 -0.28848398 -1.9925848 -0.03716985 0.4475987 0.54140073
0.17085071 1.8814425 -0.1367086 0.81670773 -3.5603757 0.045122992 0.41093448 -0.25451887
-2.8646915 -1.0661365 0.13133648 0.42107406 -2.1432965 0.29970288 0.4440264 0.92251945
-0.42652667 -0.9065932 0.039887697 -0.013647966 -2.1010773 -0.29595968 1.2687947 -1.5369014
0.22742727 -0.8812903 2.3261764 3.5063984 0.23479556 0.18256427 0.47539797 -1.0782534
-0.46483782 1.3023089 0.08113359 1.0102924 -0.0016082854 0.22931413 0.2895935 16.356466
0.4908272 -1.3648506 -1.1133597 -0.35643193 1.2361169 -0.4766984 0.60966086 0.046118807
0.7594047 3.6623971 -0.15801764 1.2057266 0.048810035 1.3851309 0.22071792 -0.2176202
1.547293 2.1947668 1.0148984 0.73576564 -0.8658435 0.3344582 0.36559978 -0.24668165
0.4905948 0.6270967 0.014151523 0.67193514 3.4313958 0.7603495 -0.5907944 0.03718759
-0.0030715347 -0.5090785 -0.34349602 -1.1853083 0.011758978 0.34025848 0.101472944 -0.78161544
-0.010017861 0.69462806 -0.078041874 0.5559102 2.8863666 -0.068247154 -0.3001076 0.66228557
0.2520287 -0.63555217 1.6990753 -0.16541785 0.20195854 0.055006374 -0.9696271 -0.3393721
0.26273596 -0.28567418 -0.13614473 0.34908956 1.5165545 0.33879927 0.0372363 -0.04006243
-0.3621416 -0.80122745 0.29722843 0.14269283 -0.18973625 0.11727199 0.23082806 -0.49920243
-0.40616712 1.3134097 0.41777164 0.3887054 -1.7024795 -0.616523 -0.44295895 2.14683
0.11499141 1.119399 -3.6983001 1.3563282 -0.44893396 -0.57342666 0.07145784 -0.95160306
0.6293515 -1.3522773 0.21413766 -1.3089775 2.113909 0.38263458 0.5733741 18.201414
-0.341865 1.4964736 0.36883548 -0.2744812 1.8618542 -0.21042001 0.59756714 0.5957207
-0.0702556 -0.016916707 -0.1457331 0.3047023 -1.8605968 1.4088855 0.13540378 -0.28928468
-5.4419556 -1.567386 -0.6537555 0.4167579 -0.2296076 0.31307337 0.39970863 1.4821013
-0.40294236 -0.80399823 -0.3792973 0.3167817 -0.5912509 -0.22874792 -9.71357 -2.556655
0.2355382 1.8618592 3.599053 0.2974642 -0.56887835 0.06716802 0.36676645 -0.8342116
-0.54372156 -2.0737069 0.165142 -1.5808897 0.40674844 0.34207788 0.3654475 -16.425856
-0.14655389 1.6359426 2.5301461 -0.310224 -0.78709143 -0.62316036 0.8800709 -0.08351589
0.2518399 0.2004936 -0.6099388 1.0984107 -0.28350756 1.6179014 0.34335467 -0.3874838
4.219853 2.266293 -0.51762664 0.17485748 0.15662128 0.43385422 0.36699578 -0.34219816
0.773978 -0.03069697 -0.033943724 0.82730645 -0.86939806 0.8833861 10.90795 1.1858625
0.01417399 0.8196002 -0.1147992 1.1887392 -0.12646219 0.39714617 0.1970385 -1.0582819
-0.13785748 -1.6528658 -0.111747816 -0.88484603 -4.5651274 -0.11760385 -0.4902756 0.046404105

model_1/block_1_project_BN/FusedBatchNormV3 f4 [8]
00000000: ad30 093f 37f7 0f3f 6742 d4bd 5037 893f
00000010: 30e0 7a3e 0344 a73d 799e 253f e732 9bbf
0.535899 0.56236595 -0.10364228 1.0720005 0.24499583 0.08167269 0.64694935 -1.2124909

model_1/block_2_depthwise_BN/FusedBatchNormV3;model_1/block_2_depthwise/depthwise;model_1/block_6_expand/Conv2D f4 [1, 3, 3, 48]
00000000: befa 13bf 4dad d13e 65d9 66be 11e1 76bf
00000010: 0003 60bd 5ab6 d3be e2ff 063d 466a 8abe
00000020: f8f4 ffbc bcea 93be d53e 7bbd b506 1c3f
00000030: a54b 5abe fb1d b7be b071 f9bf e1b6 2a3f
00000040: a68a 7a3e 86fd 0fc0 9cb2 cf3f ff24 113e
00000050: a219 4cbf 257d 82bf a6a2 3f3f cf6d febe
00000060: b729 bdbc 2831 dcbe fad7 993d ca7e a13e
00000070: 79ab a93c 2134 563e 06d6 9ebe 82ab d23f
00000080: 12cd 4e3c ef88 0fbe ff2d 653d e09e 993e
00000090: eab1 f4bd 6c78 22bd 7037 95bd 51d0 e33c
000000a0: f065 0f3e fa3d 05bf 7099 10be c4db ee3d
000000b0: a4a9 a63e a3f3 b8bf 90c1 bfbd 6415 45be
000000c0: 25a4 76be a3c6 a3bf 23f6 dc3e bb15 06c0
000000d0: 3a1d 3cbe e840 3abf 0107 88be 2ac4 8e3f
000000e0: e9d8 2f3e a20d fcbe 969b 013d 47b5 503f
000000f0: e085 853d 7e29 bdbe 5c24 90bf 3550 4a3d
00000100: 0892 38be 9863 8bbf 8b06 0c3a f950 85bf
00000110: cdae bbbe 4661 ea3c faa2 a33e a3ef 2e3f
00000120: 1367 ae3e 8c5b ff3e 578b 8e3e 684b 0a3f
00000130: 7bb7 a73e 18c6 5a3d 80f0 a5be ae29 88bf
00000140: 0aa4 cdbd 2fb5 1f3f cc18 f23c 61e2 adbd
00000150: 9479 213f d698 52bf e3a7 263f 118d 81be
00000160: c996 e03b 7466 73bf b0bd 40be 15c5 b2bc
00000170: 8dc1 083f 694a 6e3f 2bd4 1e3f 817d f8be
00000180: d0b8 05bf c083 7bbe 45e1 903d ce6c 11be
00000190: 2b4f 1ebe a95f 193f dd03 d53d a317 013f
000001a0: 0ad9 6cbb 96af 1b3e d9ee 2bbc 3733 603e
000001b0: c481 813e 3019 073e bba9 ca3d 40c9 3e3f
000001c0: 4846 233e e8d7 35bf b6de e1bc c877 983d
000001d0: 2bf4 5ebf 12c0 233f bd84 71bc 1ffd b1be
000001e0: fbb0 9d3d a708 993f e1b8 863e 9f3e 2cbe
000001f0: e69e 553c c5f9 793e 2bff 18be 1f77 cebe
00000200: 1064 6d3c 4c67 7abd cbc8 ac3c d64d b6be
00000210: 5d37 9cbe e252 973f 1639 a5be 66ce c7bd
00000220: 8651 353e 340a 34be bf61 d03d 3e8a 71be
00000230: 3351 d83e 1e4a 063f 4977 333e ec1f 36bf
00000240: ba25 33bb b886 afbe 2ebb 1ebf 7b21 253d
00000250: a0df 81be a064 793f 6b30 2bbe c2ea 9cbd
00000260: e348 8bbb 232f 06bf 5e16 7bbd bfba 0fc0
00000270: 23a9 b0be f173 943d 6af8 d6bf 2b92 e63f
00000280: d9b2 d93e 487f 51bf 2f7f 0e40 d93b 6b3f
00000290: 7826 e9be 5885 c53f c546 2d3f ebdb 473f
000002a0: b212 323e 201f ffbe beec afbe f3eb 53be
000002b0: 12b8 ba3e 3089 05bf b632 3cbd 1ef6 a9bf
000002c0: b301 ce3c a76d 03bf 4d00 26be 8b21 873e
000002d0: 73a5 d9bd 0f93 18bf 1555 143f 5a29 1b3e
000002e0: 8e59 643d 8b71 633f 9699 34be 156a cfbc
000002f0: cf7f 2ebf 3ae3 9e3f a9a4 c13e 9cba 3dbf
00000300: a3d8 43bf 0483 2c3f 4174 4f3f 2e53 1940
00000310: 71ca 4c3f 459c 30c0 9e4c 3abf 26d0 08be
00000320: a7a5 cfbb 1406 41bf ed82 91bf acf2 1bc0
00000330: 001c b23f 3990 e43d 88bd 633e 5290 a03f
00000340: c80c 8e3c 84df abc1 3c75 8fbf ae44 92bf
00000350: c957 f83e 103b 7fbe 2674 9fbe 6b10 1bbf
00000360: 0993 943f e027 acbd a2df 873f 9cb0 0bbf
00000370: 8617 623f 1fa5 9f3f eb99 bcbe 4b50 573f
00000380: 8030 04be dc8b 01c0 bd71 323f 4812 82bf
00000390: 65e2 5d3f c9b5 24bf 9b42 05c0 c452 98bf
000003a0: 2707 503c dac1 043f 032e 11bf 3f22 453d
000003b0: f346 6bbf f35a 7cbf a091 aa3f 0aaf 5840
000003c0: 3b19 34be ee47 f1bd d24b 143e 45a3 493f
000003d0: 617a 383e 4271 0f40 6382 fdbb 0a2f 0c3f
000003e0: dfbc f03d 36de 0c3e 921c d53e f006 bfbf
000003f0: db5e b1bd 81f1 833d 2f3e f6be 367e 373e
-0.5780448 0.4095253 -0.22543867 -0.96437174 -0.05469036 -0.4135006 0.032958873 -0.27034205
-0.03124474 -0.28890026 -0.06133922 0.60947734 -0.21317919 -0.3576506 -1.948782 0.666853
0.24466953 -2.2498488 1.6226382 0.14174269 -0.7972661 -1.0194441 0.74857557 -0.49693152
-0.02309118 -0.43006253 0.075118974 0.31542045 0.020711647 0.20918323 -0.31022662 1.645859
0.012622135 -0.1401708 0.05595207 0.30004025 -0.11947997 -0.039665624 -0.072859645 0.027809294
0.1400373 -0.52047694 -0.14121032 0.11663011 0.325513 -1.4449352 -0.09363091 -0.19246441
-0.24086054 -1.2794994 0.43156537 -2.0950763 -0.18370524 -0.7275529 -0.26567844 1.1153615
0.17172588 -0.4922915 0.03164252 0.8152661 0.06519675 -0.3694572 -1.1261096 0.049392898
-0.18024457 -1.0889769 0.0005341551 -1.0415336 -0.366568 0.028610837 0.3196028 0.68334407
0.34063014 0.49874532 0.27840683 0.5402131 0.32757172 0.053411573 -0.3241005 -1.063772
-0.100410536 0.6238584 0.02955284 -0.08490444 0.6307614 -0.8226446 0.65099925 -0.25302938
0.0068539125 -0.95078206 -0.1882236 -0.021822492 0.53420335 0.9308229 0.6204249 -0.48533252
-0.52235126 -0.24561977 0.07074217 -0.14201662 -0.15459888 0.5991159 0.104011275 0.5042669
-0.0036140108 0.152037 -0.010493957 0.21894537 0.25294316 0.13193202 0.09895655 0.74525833
0.15944779 -0.7103257 -0.027572017 0.074447215 -0.8709132 0.6396495 -0.01474112 -0.3476343
0.07699772 1.1955765 0.26312926 -0.16820763 0.013038373 0.24411686 -0.14941089 -0.40325257
0.014489189 -0.061133668 0.02109184 -0.3560626 -0.3051099 1.1822169 -0.32270116 -0.09756164
0.1770688 -0.17582017 0.101748936 -0.23587891 0.4224945 0.52456844 0.17525972 -0.7114246
-0.002733572 -0.3428247 -0.62004364 0.040315133 -0.25365925 0.97419167 -0.16717689 -0.07661964
-0.004250632 -0.52415675 -0.061300628 -2.245773 -0.3450404 0.072486766 -1.679456 1.8013357
0.42519262 -0.8183484 2.2265127 0.91888195 -0.45537162 1.5431318 0.6768611 0.78069943
0.17389944 -0.49828434 -0.34360307 -0.20695476 0.3646856 -0.52162457 -0.0459468 -1.3278234
0.025147295 -0.5133919 -0.16211052 0.2639278 -0.1062726 -0.59599394 0.57942325 0.15152493
0.05574947 0.8884513 -0.17636713 -0.025319139 -0.6816377 1.2413094 0.37820938 -0.7411287
-0.76502436 0.67387414 0.81036764 2.395702 0.799964 -2.759538 -0.7277316 -0.13360652
-0.006336886 -0.753999 -1.136808 -2.4366865 1.3914795 0.11160321 0.22240269 1.2544043
0.017340079 -21.484138 -1.1207652 -1.1427209 0.48504475 -0.24924874 -0.31143302 -0.60571927
1.1607372 -0.08406043 1.0615122 -0.5456636 0.88317144 1.2472266 -0.3683618 0.8410689
-0.12909126 -2.0241613 0.697048 -1.0161829 0.86673576 -0.6433988 -2.0821903 -1.1900258
0.012697018 0.51858294 -0.56710833 0.048128363 -0.91905135 -0.9857628 1.3325691 3.3856835
-0.1758775 -0.117812976 0.14482048 0.78764755 0.18015434 2.2412877 -0.0077364906 0.54759276
0.11754774 0.13756642 0.4162336 -1.4923992 -0.0866067 0.064425476 -0.48094317 0.1791924

model_1/block_2_project_BN/FusedBatchNormV3 f4 [8]
00000000: 733e be3f 74db ecbf dfc9 0dbf 2e53 ea3d
00000010: 2d6c 0440 0113 02bf 528f 033f 98de 1a3f
1.4862808 -1.8504472 -0.55386156 0.114416465 2.0691025 -0.5081025 0.51390564 0.604959

model_1/block_3_depthwise_BN/FusedBatchNormV3;model_1/block_3_depthwise/depthwise;model_1/block_6_expand/Conv2D f4 [1, 3, 3, 48]
00000000: 36f8 c9bd e4b1 b6be 3408 b9be 553c b03d
00000010: 9679 2ebf e263 a9bc 9a06 74bd 1f64 583e
00000020: b80e cfbd baf8 483e bf89 133e 7b76 82bd
00000030: 64aa 11be ca48 1fbc 7e65 45be eda9 39bd
00000040: fa61 5e3e 69f0 24be f9a1 f2bd a580 2a3f
00000050: 1657 003e cf92 623f 399d 8cbd 96c9 fd3e
00000060: 3710 10be 44b1 acbe 0b21 a43e b756 203f
00000070: 702e 683e cbb8 f2bd 9822 973e a291 4a3e
00000080: 713c 1f3e 9a7a 60be 1b4f d2be df29 cabe
00000090: 9116 8abe bcc8 0d3d de46 403f 9343 bc3d
000000a0: 0df4 a9bc 0fc8 aebd 1e68 343e 92b9 093e
000000b0: 538d 643f dd96 d43e 5660 bbbe 8d18 d3be
000000c0: af0d b2be 01b3 a0be b686 38be 9e4d f23d
000000d0: a98e edbe 0b02 2fbe 05c9 b4be 488d 853e
000000e0: c6fc 1cbd d07c 1c3e 8eed 2f3e 0680 69bc
000000f0: c982 73be 9bf3 c23d 547f 29be bda4 423e
00000100: beda 963e 37af 1ebe 19b6 4bbe c864 573e
00000110: c880 913d 8d52 483f 8d8a 093f 31f8 f73e
00000120: 7c4e a0bd 84c3 7ebe 5280 c53e 7536 e53e
00000130: 194c 563e 6ec3 f0bd f850 5b3e 2f5c 8d3e
00000140: 3e66 933e 7318 68be 76b7 73bf a09f 2fbf
00000150: fa09 2cbe 6e44 64be dfb1 bc3e ecb6 453e
00000160: 0888 693e a738 9ebd 93fd 5b3e e111 4d3e
00000170: 885d 62bf af20 833e 1b19 dbbe b98c 60be
00000180: 9cc9 46be 3ba6 8dbe 0594 bb3c 2244 a53d
00000190: 5b08 66bd f837 80bd 980b 84bd ac63 553e
000001a0: 6ce2 e5bd 6a5e dc3d 6513 ca3c e02f 89bd
000001b0: 7de5 103e 5f80 473d fb3c 38be 7e50 26bd
000001c0: fc99 9e3e b2d4 30be 344e 40be b92e 123c
000001d0: e7c0 9a3d 0306 a8bf 17b7 e7bc 3477 afbd
000001e0: 8035 a2bc 3705 9fbe 3e9e 383e 74f3 0cbe
000001f0: f053 d03d 7725 15be c1c1 3b3f e6e6 e03e
00000200: d81a b63e 0f97 08be 2027 1dbf 0de1 9ebe
00000210: b2c2 4bbd d850 a73e 617b 1ebd daed fb3d
00000220: 97e3 ebbc 8d7e a0bd 86b9 1a3e 0b84 fb3d
00000230: 80fd d83f 09ef bd3e 8406 f2bd 1769 bebd
00000240: 5876 ffbb 99f7 a6be b0ea 84be 051f 103c
00000250: 7b07 92bf eb0d acbe 4d5a a8be 5d47 853e
00000260: 38a4 63be 4cda b53e f8ee 553e 6445 51be
00000270: 037c 08be 0c0a 913c b7de 19bf 41cd 443e
00000280: 780e 903e cfa4 94bd d9b3 60be 13ac d53e
00000290: a264 d13d c6cd 903f 916a f1ba a0b0 063f
000002a0: 9c57 55be aeb8 8fbe d626 753e c8ec 723f
000002b0: 9b50 763e 1837 61be ed5e ad3e 3991 fa3d
000002c0: f0b6 1f3e 78d4 37be e148 073d 7b63 9fbe
000002d0: a4f1 09bf 0cae febe 35cf 473f 0df5 9d3d
000002e0: 434e cabe 8842 84bd f7f1 923d 197d 343e
000002f0: 6599 0140 16b9 013f 35a3 aebe 46dc 45be
00000300: 893f 93be ae46 0abe 8ac5 73be 9b0f 94bd
00000310: 5edd 38bf 8651 60be 3785 b1be 1a20 31be
00000320: 9fbc 3ebe c7d0 b83e 5bd3 b63e 3cd5 19be
00000330: d635 1bbf c90e 573e d2db 9ebe 72b6 b53e
00000340: dbc2 203e 8bc5 1abe 0cfb 83be d3ba 80bd
00000350: 853a 183d cd8a 0c3f 9760 1e3f 480d d33e
00000360: 1466 20be 6b5f f0bd e5f5 a03e 7f23 b33e
00000370: 5627 403e a0a9 0cbe d67b c53d 78ed 3e3f
00000380: bcf5 e43d 6a92 09be 8475 26be 0c2b adbe
00000390: 601e 93be fe61 4ebf af98 1a3f 9318 8a3e
000003a0: 747d 4ebe da16 b7bd 396c ba3e 963e 133e
000003b0: d380 303c 4455 373d ad51 d8be ad96 33be
000003c0: 197f 9b3c 5efe 9fbd a461 1bbf 3bda a9be
000003d0: 4b98 e83c eacf 8cbe 58c0 c2bd 2333 393e
000003e0: 421e c5bc 6304 583e caa7 2b3e 0acc 9bbc
000003f0: 08e9 23be 9e09 e53d 41d1 a9be ae7a cf3d
-0.098617956 -0.35682595 -0.3613907 0.086052574 -0.68154275 -0.02067751 -0.05957661 0.21131943
-0.10110229 0.19626132 0.14408015 -0.063702546 -0.14225155 -0.009721944 -0.19276997 -0.04532807
0.21717063 -0.16107334 -0.118473 0.66602546 0.1253322 0.8850526 -0.06865925 0.4956786
-0.14068685 -0.33728993 0.3205646 0.62632316 0.22673965 -0.11851653 0.2951858 0.19782117
0.155504 -0.21921769 -0.41075978 -0.3948507 -0.26970342 0.034615263 0.75108135 0.09192576
-0.020746255 -0.08534252 0.17617843 0.13449696 0.89278144 0.4152135 -0.36596936 -0.41229668
-0.34776065 -0.3138657 -0.18020138 0.118312106 -0.46397904 -0.17090623 -0.35309616 0.26084352
-0.038327 0.15281987 0.17180464 -0.014251715 -0.2378036 0.0951912 -0.16552478 0.19008155
0.29463762 -0.15496527 -0.19893683 0.21034539 0.07104641 0.7825096 0.53727037 0.48431543
-0.0782747 -0.24879271 0.38574463 0.4476811 0.20927466 -0.11756025 0.21417606 0.27609393
0.28788942 -0.22665577 -0.95201814 -0.68602943 -0.16800681 -0.22291729 0.36854455 0.1930806
0.22805798 -0.07725649 0.2148345 0.20026352 -0.8842397 0.25610873 -0.4279259 -0.21928681
-0.19412845 -0.27665886 0.02289773 0.08069636 -0.056160312 -0.06260675 -0.06447524 0.20838803
-0.11224827 0.107601956 0.024667451 -0.066985846 0.14150043 0.04870641 -0.17992012 -0.040604107
0.30976856 -0.17268637 -0.18779832 0.008922272 0.075563245 -1.3126835 -0.028285546 -0.08567658
-0.019800901 -0.31058666 0.18029115 -0.13764745 0.1017226 -0.14565073 0.7334252 0.43926162
0.35567355 -0.13338874 -0.61387825 -0.31031075 -0.049746223 0.32678866 -0.038691882 0.12301226
-0.028795047 -0.07836638 0.15109834 0.122810446 1.6952362 0.37096432 -0.11817649 -0.09297388
-0.00779609 -0.32610777 -0.25960302 0.008796458 -1.1408533 -0.3360437 -0.32881394 0.26031008
-0.22230613 0.3551811 0.2089194 -0.20436627 -0.13328557 0.017704986 -0.6010546 0.19218923
0.2813604 -0.07257997 -0.21943606 0.41732845 0.10224272 1.1312797 -0.00184186 0.5261326
-0.20834202 -0.28070587 0.23940596 0.9489255 0.24054186 -0.21993673 0.33861485 0.1223473
0.15597129 -0.17952144 0.033028487 -0.31130585 -0.5388434 -0.49742162 0.7805055 0.07712755
-0.39512834 -0.06458002 0.071750574 0.17625846 2.0249875 0.50673044 -0.34108892 -0.19322309
-0.2875941 -0.13503525 -0.23805824 -0.07229539 -0.7221278 -0.21906099 -0.34671947 -0.17297402
-0.1862664 0.36096784 0.35708126 -0.15022749 -0.6062902 0.21001734 -0.31027085 0.35490757
0.15699331 -0.15114419 -0.2577747 -0.06285634 0.037165184 0.54899293 0.61866134 0.4122107
-0.1566394 -0.117369495 0.31437603 0.3498802 0.18765005 -0.13736582 0.096427605 0.745811
0.111796826 -0.13434759 -0.16255766 -0.33821905 -0.28734112 -0.80618274 0.60389227 0.26971874
-0.20165044 -0.089399055 0.36410692 0.14379343 0.010772902 0.04475905 -0.42249814 -0.17537947
0.018981503 -0.078121886 -0.6069586 -0.3317431 0.028392931 -0.27502376 -0.09509343 0.18085913
-0.02406228 0.21095423 0.16763225 -0.019018192 -0.16006863 0.11183475 -0.3316746 0.10130821

model_1/block_3_project_BN/FusedBatchNormV3 f4 [8]
00000000: 6ebf 343f 83a1 9cbe 9b0e a3bf e051 f2bd
00000010: be4e 3a3e 2a7c 3cbf e20a 78bf 7e76 bcbf
0.706046 -0.30591974 -1.2738832 -0.11832023 0.181941 -0.7362696 -0.96891606 -1.4723661

model_1/block_4_depthwise_BN/FusedBatchNormV3;model_1/block_4_depthwise/depthwise;model_1/block_6_expand/Conv2D f4 [1, 3, 3, 48]
00000000: 15ce b5bf 68aa 8abe 3024 dd3d 8cde d83d
00000010: 265a a7be c3ba 003d 4358 52bf 35c8 d4bd
00000020: 57d6 af3f d7bf 8b3f a17d 923f aec4 a9bd
00000030: c22a 74bd 2b3c b73e 6664 09bf ecab ca3d
00000040: be64 003d 4fc2 0e3d 0f78 b73e 51d5 3dbe
00000050: 3c51 f3be eb82 cebd 039d 33be 5f25 343e
00000060: 43ff cabe 5519 bebc 7e21 e0be d93e 3fbf
00000070: 6c05 0d3f 5055 a0bf f276 ff3e 2712 ec3d
00000080: b7b5 1ebe c23b 583f 4c84 5d3f eb22 abbe
00000090: f02d 103f 84b7 61bf 14a5 17bd 34ca 823f
000000a0: c6c9 4dbe 07ca 1f3e 6b26 20be 1b7d 023f
000000b0: 1d7a 95bd 696c 35be 2080 99bd bd6d 633e
000000c0: a5d0 cdbe 305c 74bf c82c 9fbc a754 153e
000000d0: 5589 99be caf5 bb3e 2d8b 3bbf 2f50 42bd
000000e0: 0ff4 943f cab9 843e be9c 063f 850b 183d
000000f0: bad3 31be 9e55 50bd 563b d0bf 90b1 91be
00000100: b524 f2be 2dbb dabd f9de 743f bce0 e03e
00000110: f100 923e 2a67 313e 41e0 2abf dd96 4f3e
00000120: 895f e8be 5f37 0fbe 925f 1fbe 28e5 8abf
00000130: 6ac9 993e 3e0a a1bd e599 90be 5a4c 42bf
00000140: 44df 5c3e d2af ac3e e94c 27be a4ed 98bf
00000150: 010a babd afeb bb3e 5483 363e d9be 683f
00000160: 3a86 4e3f d6c5 bbbe 6b54 4fbe 2aa2 a63f
00000170: 0628 2a3e d7fb c3bf b16c dfbd b2f9 56bc
00000180: 145b a4bf f440 c43d 1103 653e 5d1e c5bd
00000190: ddf7 04be 3f94 eb3e 685b c3be 9f44 56be
000001a0: 0706 933f 277a d23e ff6f 3d3f b17e 47be
000001b0: 165d 5bbe 07f1 623e 300b 02be 20e1 783e
000001c0: e420 5cbc 8ad4 79be 90ea a3be 3995 b93e
000001d0: a4ce 09bf f10e 85be dbf3 cd3e 7d5d a3bd
000001e0: 67bf 5fbe a3c5 483d 3bfc 833e 70f4 15bf
000001f0: 077f bbbd 59b0 93bf 4078 ba3e 8f88 88be
00000200: 88cb c23e 9eb0 423e 5aac 4abf 6a79 5dbe
00000210: 4b96 493f 7fc0 07bf 6a48 793e f2e7 693f
00000220: a1b7 39be f8d2 013e 1098 ecbe 4abd 353f
00000230: 30fb 193e 6d73 303e 43b6 0c3d 9981 173f
00000240: 1ace 2b3f a65b a63e 96c3 45bb 1365 8b3e
00000250: 2780 13be bca3 2dbe 4afe df3e 53c6 32be
00000260: 4e75 19c0 c8e5 243f b22c 003e e65d 7d3c
00000270: 00d2 34bd 4427 d3be b1e7 76bf adf9 ba3e
00000280: 1104 40bf 8a3c 9ebd 707d 363e 0f63 f53e
00000290: 8960 66be 93f3 8a3e ddbc 4fbf 3c2b 8bbe
000002a0: 7c67 a1bd 68bf 17bf 75d4 98be dccb bfbe
000002b0: c369 9f3f 36fe 1c3e 1462 7c3e 94cb cf3f
000002c0: bfd9 91bf 8cc2 513f 11fd 533f dcac b53c
000002d0: d056 513e 3a43 053f 2303 68be 657b adbf
000002e0: a095 d33e 442b fc3d 3cc1 843d 2e89 903e
000002f0: 4762 7fbf da19 293e eb5d 07be 035c 48bf
00000300: badd 783f 9a17 da3d 79cd 7fbe eeab 82be
00000310: af71 ac3e f66c 393f 6377 263d 596c 3f3f
00000320: 9a16 bbc0 614e 41bf d1d0 5abf 48f3 3c3e
00000330: 383e 3fbe 3f02 debe 93f3 babe 13c2 2dbf
00000340: 27ef 41bf f384 08bf fea1 6ebf acf7 383f
00000350: 178b 263f 0d6c 503f bffb 4dbe a82b 0d3f
00000360: 5857 3dbe 0c59 843e 92a4 83bf 35f5 313f
00000370: bc08 20bf fae6 753e fc5b 2fbf 8144 05bf
00000380: c3ae e23d 7c5c 903f 0e2a 09bf e003 8e3e
00000390: b200 99bf c7f5 293e 3cf3 ce3e b8bf 24bf
000003a0: aec2 85be 5b36 623f ee96 66bf 79b0 98bf
000003b0: 1211 8f3f b480 a23e ab03 03bf 07b8 2cbf
000003c0: f758 7e3f f120 973e 5cc0 763e 2d02 38bc
000003d0: 662c 4dbc 86a8 cfbe 004a ef3d d014 9bbe
000003e0: 771c c1bf 4b10 183e 1a2d 3bbe de77 7abe
000003f0: a116 f5bd e420 39bf 362c 64bf e47e ca3e
-1.4203516 -0.27083135 0.10797918 0.105893224 -0.32685965 0.03142811 -0.82165927 -0.10389749
1.3737286 1.091792 1.1444589 -0.08289467 -0.05961109 0.35788092 -0.5366882 0.09896073
0.031346075 0.034853276 0.35833785 -0.18538405 -0.47522914 -0.10083564 -0.17540364 0.17592381
-0.39647874 -0.023205439 -0.43775553 -0.7470527 0.550864 -1.2526035 0.49895436 0.115269
-0.15499006 0.84466183 0.86529994 -0.33425078 0.56320095 -0.8817065 -0.037022665 1.0217957
-0.20096502 0.15604411 -0.15639655 0.50972146 -0.07298682 -0.17717136 -0.07495141 0.2220983
-0.40198246 -0.95453167 -0.019430533 0.14583074 -0.2998759 0.3671096 -0.7325924 -0.04743975
1.1636981 0.25922996 0.5258292 0.03712036 -0.17365924 -0.0508629 -1.6268108 -0.28455782
-0.4729363 -0.10680232 0.9565273 0.4392146 0.28516343 0.1732451 -0.66748434 0.20272394
-0.45385388 -0.13985966 -0.15563801 -1.0851183 0.3003648 -0.07863282 -0.28242412 -0.75897753
0.21569544 0.3372789 -0.16337933 -1.1947522 -0.09083939 0.3670325 0.17823535 0.9091621
0.80673563 -0.36674374 -0.20247047 1.3018239 0.1661683 -1.531123 -0.10909403 -0.013121055
-1.2840295 0.09582701 0.22364451 -0.09624932 -0.12985177 0.4601154 -0.38155675 -0.20924614
1.1486214 0.4110882 0.7399902 -0.19481923 -0.21422228 0.22162257 -0.1269958 0.24304628
-0.013435576 -0.24397483 -0.32014894 0.3624666 -0.53830934 -0.25987962 0.4022511 -0.07976816
-0.21850358 0.049016606 0.25778374 -0.5857611 -0.09155088 -1.1538192 0.36419868 -0.26666686
0.38045907 0.19012687 -0.7916924 -0.21628347 0.78744954 -0.530281 0.2434403 0.91369545
-0.18136455 0.12678134 -0.46209764 0.7099196 0.15037227 0.17231531 0.034353506 0.59182125
0.6711136 0.32491797 -0.0030176393 0.2722555 -0.14404355 -0.16956991 0.43748695 -0.17458467
-2.3977847 0.6441312 0.1251705 0.015464282 -0.044145584 -0.41240895 -0.96447283 0.36518613
-0.75006205 -0.07726391 0.17821288 0.47927138 -0.22497763 0.27138957 -0.8114756 -0.27181423
-0.07881066 -0.5927644 -0.29849592 -0.3746022 1.2454151 0.15331349 0.24646789 1.6234002
-1.1394576 0.8193748 0.82808024 0.022177152 0.20443273 0.52055705 -0.22657447 -1.3553282
0.41325092 0.1231294 0.06482169 0.2822966 -0.99759334 0.16513768 -0.1321942 -0.782654
0.9721333 0.10649033 -0.24980725 -0.25521797 0.33680484 0.72431886 0.0406412 0.747747
-5.846509 -0.7551022 -0.8547488 0.1845218 -0.18676078 -0.4336109 -0.36513957 -0.6787426
-0.7575554 -0.53327864 -0.9321593 0.7225292 0.65055984 0.8141487 -0.20115565 0.5514474
-0.1849035 0.25849187 -1.0284598 0.6951478 -0.6251333 0.24013892 -0.6849973 -0.52057654
0.110684894 1.1278224 -0.53579795 0.2773733 -1.1953337 0.16597663 0.40419948 -0.6435504
-0.2612509 0.8836419 -0.9007405 -1.1928855 1.1177084 0.31738818 -0.5117747 -0.67468303
0.993545 0.2951732 0.24096817 -0.0112309875 -0.012522792 -0.4055826 0.11684036 -0.30289316
-1.5086812 0.14849965 -0.18278924 -0.24459788 -0.11967207 -0.7231581 -0.8912996 0.39549935

model_1/block_4_project_BN/FusedBatchNormV3 f4 [8]
00000000: edb4 133f 197d 043f 26b6 ca3f 7e61 47be
00000010: 40fc 8bbf c593 863f e6df cbbe a432 a83f
0.57697946 0.51753384 1.5836837 -0.19470784 -1.0936356 1.0513846 -0.39819258 1.3140454

model_1/block_5_depthwise_BN/FusedBatchNormV3;model_1/block_5_depthwise/depthwise;model_1/block_6_expand/Conv2D f4 [1, 3, 3, 48]
00000000: b814 ce3e 5dad e63e 8fd5 073f 3d8f b43d
00000010: 0082 2dbf 382c d0bf d35d 453f 6279 d03e
00000020: 7420 76bf 4de5 ed3d c868 58bd 1e1c 303f
00000030: 1de3 c73e bbc6 ca3e a4de 613e df59 ee3c
00000040: 0d77 703f eabe 0abf 5d48 e83e a43b 0f3f
00000050: 6732 053f c18d b5be 463a 0d3f 9dfb b3bd
00000060: 9210 64be 12cf 09bf a40f 41bd 5850 cf3c
00000070: 94cb cf3e 6f7c c2be e4f1 b0bc fdde 133e
00000080: 1d0e 303e c802 52bf b686 91be f553 a63e
00000090: 9dd8 0fbe 6e43 9e3e ff00 c1be de10 d2be
000000a0: aafa 93be 921e 8dbe 8fd8 f1be b9ec 37be
000000b0: 6ffe 7a3d 91f0 fabe b60a 9dbe e171 fabe
000000c0: 59df 3e3e e15f ef3d ee48 d93e d864 87bf
000000d0: 6796 39be d0ca 0e40 113c d93e 507e f9be
000000e0: 9537 91bf 82c1 37be 37cd 7439 9efb 6b3e
000000f0: c93b c3bd d62a 483d adaf 9dbf eb35 3cbe
00000100: 9b32 4bbd 20d5 063f 262f 823e c404 b33f
00000110: 37bd 55bd 0938 ea40 8357 423e 4351 043e
00000120: 2500 293f 5de9 01bf b21f 9fbd 4f66 21bf
00000130: 3939 7cbf d567 3d3e 1297 a9be 128a c43e
00000140: ad52 203e 8d24 1cbf ab04 b4be e3dc a63f
00000150: 0919 763c 236c 5c3e 08de 7abf 6104 2bbf
00000160: 8620 da3d e20d aa3f 1db2 533c 3076 043e
00000170: 138d d4be d936 08bf f917 a4bd 5691 6bbd
00000180: a953 f33e eab6 e83d f32a 133f 73ea 8abf
00000190: ba76 40be df67 5abf 3dbf 673f a2bf 393f
000001a0: a010 60bf 5f7a e8be ee6f e9be 3c4a a43e
000001b0: 2ea1 7c3e 83f1 df3e 2ffd f43d 193d febe
000001c0: 951f 54bf 6ccf 15be 5ee0 0e3e 44cf 0a3f
000001d0: 4bb4 52be 787a 8dbf ff49 493f f5f6 30be
000001e0: 9642 4bbd eeb6 01bf c80e 81be 87a0 ffbd
000001f0: 9ce5 a7bc 6e57 6c3c 7247 9abe 054d 4d3e
00000200: 50e9 db3e 830b 1abf df1c 883f f3ab c43e
00000210: 0b58 d03d 71f0 05bf 9fbc 303e 1457 f8be
00000220: 507a a0be 41ee 56be a246 3b3f 0b3c 3bbe
00000230: 38cf c6bd 6961 a6be 48ba 2dbf ed45 15be
00000240: 6eff fc3e 3d1d 2ebc a0d6 4d3e 08ed 973f
00000250: a32e fb3e 1c69 463f c816 fbbc 83d9 21c0
00000260: 5668 1d3f 8adf a33d 78d4 09bf 3113 f0be
00000270: 6dbe 723d de20 943e 4982 1ebf e49e 403f
00000280: cbd0 12c0 5758 e63e 9efe 7f3e 9ab2 033f
00000290: e5ae 643e b947 5140 c202 383f ed8d fcbe
000002a0: 5c6e 673b 8787 b23e 2571 d63e 655a 383d
000002b0: 11b1 243f b7f3 7ebe e224 00bf 3704 4a3e
000002c0: bd9d e33e 9ec7 d43e 4f23 c5bf 1054 c2bc
000002d0: 8a45 16bf a6ba 39be 566e c83d 7390 d5be
000002e0: 6eb2 c5be 8cf9 06be 79d0 6bbe f025 05bf
000002f0: 913a 863e 0c10 443e b07b 8f3e ba8b a8bb
00000300: ab78 ae3c 7aa0 b03f 5dff 9fbf 5ba8 0a3f
00000310: 1e29 babe 2fe5 923f 2e52 07c0 a358 af3e
00000320: 3ead 353f a706 82bc 70d8 f7bd d0d7 883f
00000330: 85d4 97bf 9333 ed3e 9fed 8abe 370c 3abe
00000340: 9736 643f 0d67 89bf e43a 6ebf a616 453e
00000350: 0d2c 0b3f 00ce 0040 9c87 7ebf c685 a4bf
00000360: 9ff1 94be 9893 4c3e 5075 a33d 60c2 83be
00000370: c705 03be b1f6 38be ca67 8a3e d7a6 64bd
00000380: d07b 543f 9b9a 41be dbb6 8e3f 2c26 92bf
00000390: 67c9 103e 1641 d9be 9679 f33f 6bc1 ee3e
000003a0: 5fcc 563f eaef 093f c392 5dbf 2335 0dbd
000003b0: 28c6 d73e dd2d 6b3e bcd2 5ebf 06f0 28bd
000003c0: 7d41 ca3e 3566 a53d e451 793d 302f 7abf
000003d0: 9828 403f ea35 423f dfc4 d83c 10f3 8ebf
000003e0: 6261 653f 9bf7 acbe 655b ddbe 205e a5be
000003f0: 274b da3c 17fc 0d3e ff27 2bbf 2b28 e03d
0.40250182 0.4505414 0.5306024 0.08816383 -0.6777649 -1.6263494 0.7709629 0.40717608
-0.9614327 0.11616001 -0.052834302 0.68792903 0.3904046 0.39604744 0.22057587 0.029095588
0.9393166 -0.5419756 0.4536771 0.5595038 0.5203003 -0.35459712 0.55167043 -0.08788226
-0.22271946 -0.5383159 -0.047134057 0.025306866 0.40585005 -0.3798556 -0.021599717 0.14440532
0.17192884 -0.82035494 -0.2842309 0.3248593 -0.14047475 0.3091082 -0.37696072 -0.41028494
-0.2890218 -0.27562386 -0.47235534 -0.17961396 0.061277803 -0.49011663 -0.30672234 -0.48915008
0.18639888 0.11688209 0.42438453 -1.057765 -0.1812378 2.2311287 0.4242864 -0.4872918
-1.1345087 -0.17944911 0.00023346102 0.23045203 -0.095328875 0.048868977 -1.2319237 -0.18379943
-0.049608808 0.5266895 0.25426596 1.3985829 -0.052182402 7.31934 0.18978696 0.12921624
0.66015846 -0.5074671 -0.07769717 -0.63046736 -0.98524815 0.1849664 -0.3312307 0.3838659
0.15656538 -0.6099327 -0.3515981 1.3036159 0.015020617 0.21525626 -0.9799504 -0.66803557
0.106507346 1.3285487 0.0129208835 0.1293571 -0.4151388 -0.5320869 -0.08012385 -0.05751165
0.47524765 0.11363013 0.5748741 -1.0852798 -0.1879529 -0.85314745 0.9052618 0.72558033
-0.8752537 -0.45405862 -0.45593208 0.32087886 0.2467086 0.43738946 0.119623534 -0.4965599
-0.8286069 -0.14629906 0.13952777 0.5422251 -0.20576589 -1.1053 0.78628534 -0.17281707
-0.04962405 -0.50669754 -0.2520659 -0.1248179 -0.020495228 0.014425142 -0.30132633 0.20048912
0.4295144 -0.60173815 1.0633811 0.38412437 0.10173043 -0.5232001 0.17259453 -0.48503935
-0.31343317 -0.20989324 0.7315465 -0.18284623 -0.097074926 -0.32496193 -0.6786237 -0.14577456
0.49413627 -0.010627088 0.20101404 1.1869211 0.49059018 0.77504134 -0.030650511 -2.5289009
0.6148733 0.08001621 -0.53839827 -0.46889642 0.059263635 0.28931326 -0.6191755 0.7524245
-2.2939937 0.44989273 0.24999472 0.514444 0.22332342 3.2700026 0.7187921 -0.4932703
0.0035313582 0.34869024 0.41883197 0.045008082 0.6433268 -0.24897657 -0.5005628 0.1972817
0.44456282 0.41558546 -1.54014 -0.023721725 -0.5869986 -0.18137607 0.0978667 -0.41711769
-0.38612694 -0.13181132 -0.23028745 -0.52011013 0.26216558 0.19146746 0.28024054 -0.00514361
0.021297773 1.3798974 -1.2499806 0.5416314 -0.36359495 1.1476191 -2.1143909 0.34247312
0.7096747 -0.015872313 -0.12101829 1.0690861 -1.1861731 0.4632841 -0.27134416 -0.18168722
0.891458 -1.0734574 -0.9305861 0.19246921 0.5436409 2.0125732 -0.99425673 -1.2853324
-0.29090592 0.19978178 0.0798136 -0.25734234 -0.12795173 -0.18062855 0.2703231 -0.055823173
0.8300142 -0.18906634 1.1149553 -1.1417899 0.14139329 -0.4243247 1.902148 0.4663194
0.83905596 0.53881705 -0.86552066 -0.034474503 0.4214337 0.22966714 -0.87040305 -0.04124453
0.3950309 0.08076135 0.060869113 -0.9772825 0.7506194 0.75863516 0.026461063 -1.1167927
0.8960172 -0.33782658 -0.4323379 -0.32298374 0.026647164 0.13865696 -0.66857904 0.109451614

model_1/block_5_project_BN/FusedBatchNormV3 f4 [8]
00000000: e604 043d 92dd 83be 0efe 43bf 97dd 843f
00000010: 9050 ba3f 158f 7cbf 4957 ff3f 459f 1a3f
0.032231234 -0.25754982 -0.7655953 1.0380124 1.4555836 -0.98655826 1.9948512 0.60399276

model_1/logits/BiasAdd/ReadVariableOp f4 [3]
00000000: de92 b140 97f0 adc0 13c9 afc0
5.549178 -5.435619 -5.493295
