models/tensorflow-lite-int8-quantized-model.lite (tflite, 40112 bytes, 21 tensors)

model_1/logits/Conv2D i1 [3, 1, 1, 32]
00000000: ae1a 41ca c425 7fd8 fe0a 0bf3 f6d1 620a
00000010: e972 3444 00f2 36f9 d147 e80d 3a0b 1104
00000020: 1aef d223 0956 f408 7ff6 04d7 df6c 27e6
00000030: 5ddf 0fb8 b623 7138 1b1f 15de 9fed 2702
00000040: ce36 d437 4ad5 815d 5134 5717 c3cc 1a5e
00000050: ccd3 0eaa 4d55 dfc7 49ec 06b1 fcd4 4802
-82 26 65 -54 -60 37 127 -40
-2 10 11 -13 -10 -47 98 10
-23 114 52 68 0 -14 54 -7
-47 71 -24 13 58 11 17 4
26 -17 -46 35 9 86 -12 8
127 -10 4 -41 -33 108 39 -26
93 -33 15 -72 -74 35 113 56
27 31 21 -34 -97 -19 39 2
-50 54 -44 55 74 -43 -127 93
81 52 87 23 -61 -52 26 94
-52 -45 14 -86 77 85 -33 -57
73 -20 6 -79 -4 -44 72 2

model_1/head/Conv2D i1 [32, 1, 1, 48]
00000000: f6b0 7fc9 5a0b a8ac 15aa a825 1b02 bf1a
00000010: dac3 ab83 c48a 055d fbfa 38e2 41e0 d4e4
00000020: 3ddf a31d 9aad 9b3b 61b5 9c28 298e 4be5
00000030: cc33 9012 e850 f219 48b7 8144 45c1 262e
00000040: 4401 ef75 e9e6 1207 e42d b868 030e 2dbd
00000050: 4756 e804 4432 03b6 9916 ed8c e638 eee1
00000060: 04fd b030 cfae 7b31 8f29 cc43 2c34 2581
00000070: b4c6 0712 8ed5 3ff6 d225 32e6 a920 722f
00000080: a6cf 9a8a 9a2f 3acb 86a0 ebf8 9a45 cb9e
00000090: 5c1b f302 db40 9e2f 3d23 2c1e 5046 4627
000000a0: 387f b90f 77c0 cba9 00df c46b 1acf 4213
000000b0: edf1 f703 b40c 3444 e6c8 c9f9 4930 f1ce
000000c0: 3d74 be41 f4f8 e017 3f5a c42f 1ebc 03d8
000000d0: ba39 8112 73a0 2d05 e233 21de c230 a1cf
000000e0: 4f5b f8a4 d30b b52d a8d9 df89 1e72 2b3c
000000f0: 4087 4547 1988 fc28 5381 e4bf 0643 0f2b
-10 -80 127 -55 90 11 -88 -84
21 -86 -88 37 27 2 -65 26
-38 -61 -85 -125 -60 -118 5 93
-5 -6 56 -30 65 -32 -44 -28
61 -33 -93 29 -102 -83 -101 59
97 -75 -100 40 41 -114 75 -27
-52 51 -112 18 -24 80 -14 25
72 -73 -127 68 69 -63 38 46
68 1 -17 117 -23 -26 18 7
-28 45 -72 104 3 14 45 -67
71 86 -24 4 68 50 3 -74
-103 22 -19 -116 -26 56 -18 -31
4 -3 -80 48 -49 -82 123 49
-113 41 -52 67 44 52 37 -127
-76 -58 7 18 -114 -43 63 -10
-46 37 50 -26 -87 32 114 47
-90 -49 -102 -118 -102 47 58 -53
-122 -96 -21 -8 -102 69 -53 -98
92 27 -13 2 -37 64 -98 47
61 35 44 30 80 70 70 39
56 127 -71 15 119 -64 -53 -87
0 -33 -60 107 26 -49 66 19
-19 -15 -9 3 -76 12 52 68
-26 -56 -55 -7 73 48 -15 -50
61 116 -66 65 -12 -8 -32 23
63 90 -60 47 30 -68 3 -40
-70 57 -127 18 115 -96 45 5
-30 51 33 -34 -62 48 -95 -49
79 91 -8 -92 -45 11 -75 45
-88 -39 -33 -119 30 114 43 60
64 -121 69 71 25 -120 -4 40
83 -127 -28 -65 6 67 15 43

model_1/block_6_expand/Conv2D i1 [48, 1, 1, 8]
00000000: 1ffb d915 8139 b100 8132 4e0f 99ef daf0
00000010: 410e c3e8 c781 0575 a024 fd7f 26c3 c6ed
00000020: 2be6 1781 e809 bd27 5f7f b0b7 cffe f5be
00000030: 20c6 247f f096 149f 7f60 b184 8bd5 368c
00000040: fbec 3000 0515 cd81 ad00 a20b 81cc aada
00000050: 5f02 54ec 93d6 5f7f 7ffe d900 2813 a6ec
00000060: e49a 7f04 14fd aa5b 12df 6a2b 2f81 2092
00000070: cb0b 7f37 f0d1 39ec 0656 10fe ba35 2e81
00000080: fc59 c75b 21b4 117f 5661 f863 b138 811a
00000090: 23d8 7ff0 35c0 20d1 041c e87f 2fb6 bcaa
000000a0: 0d14 ef12 e040 81ff 33e2 4441 387f 42d1
000000b0: 5281 f426 8a4d 071e d6ad ee81 fabc f6b0
000000c0: 1c15 c4a8 db81 cf57 6460 7f12 20f9 b213
000000d0: 9936 7fd9 b6f3 47f5 c11b f096 057f f03e
000000e0: 1695 625f 5611 f17f 813a 29e5 8d09 52da
000000f0: 7f8c 2468 c2f4 4492 583b 50d1 83ee 317f
31 -5 -39 21 -127 57 -79 0
-127 50 78 15 -103 -17 -38 -16
65 14 -61 -24 -57 -127 5 117
-96 36 -3 127 38 -61 -58 -19
43 -26 23 -127 -24 9 -67 39
95 127 -80 -73 -49 -2 -11 -66
32 -58 36 127 -16 -106 20 -97
127 96 -79 -124 -117 -43 54 -116
-5 -20 48 0 5 21 -51 -127
-83 0 -94 11 -127 -52 -86 -38
95 2 84 -20 -109 -42 95 127
127 -2 -39 0 40 19 -90 -20
-28 -102 127 4 20 -3 -86 91
18 -33 106 43 47 -127 32 -110
-53 11 127 55 -16 -47 57 -20
6 86 16 -2 -70 53 46 -127
-4 89 -57 91 33 -76 17 127
86 97 -8 99 -79 56 -127 26
35 -40 127 -16 53 -64 32 -47
4 28 -24 127 47 -74 -68 -86
13 20 -17 18 -32 64 -127 -1
51 -30 68 65 56 127 66 -47
82 -127 -12 38 -118 77 7 30
-42 -83 -18 -127 -6 -68 -10 -80
28 21 -60 -88 -37 -127 -49 87
100 96 127 18 32 -7 -78 19
-103 54 127 -39 -74 -13 71 -11
-63 27 -16 -106 5 127 -16 62
22 -107 98 95 86 17 -15 127
-127 58 41 -27 -115 9 82 -38
127 -116 36 104 -62 -12 68 -110
88 59 80 -47 -125 -18 49 127

model_1/block_5_project/Conv2D i1 [8, 1, 1, 48]
00000000: 061a 1c29 1bdf 2226 0012 0ae2 08f0 31fd
00000010: ddeb 810b 10df 5418 2500 16f6 0de3 010d
00000020: df23 28e9 2b46 e0e2 1506 b0eb 1322 d6b8
00000030: 03d4 fc2a e308 05ed 2006 f2de ff09 0803
00000040: 1b0d 4ecb 0317 07d6 0ff8 e5dd e510 000e
00000050: e3db 905e 0b18 81e5 25fd 4118 5be6 db3f
00000060: 05f2 0be1 c5da f962 f931 c5f3 7f05 2af6
00000070: e4bf 1008 ecf5 d816 f71d fc2a 0401 5413
00000080: d111 003f 072d 3e8b 221c c2d5 f6ff 0eff
00000090: 12f5 85ef ece7 12ec 11e7 ed10 cedf ff0c
000000a0: 0c17 1a09 cb13 81ef d4cc 3e41 d9c5 d418
000000b0: 2b22 d627 cfef 19ec f8d0 e20d 1bc5 46ff
000000c0: 0b20 ed20 1ee6 9688 f03b f33e ebda ea35
000000d0: 2629 8d18 f5ea dfdf 2d15 0a15 fefd e2d2
000000e0: 1ad2 810b ece0 2842 bddb 4630 29dd 290e
000000f0: cd04 6cf5 3e24 52f3 81f8 9dfc e5c1 3937
6 26 28 41 27 -33 34 38
0 18 10 -30 8 -16 49 -3
-35 -21 -127 11 16 -33 84 24
37 0 22 -10 13 -29 1 13
-33 35 40 -23 43 70 -32 -30
21 6 -80 -21 19 34 -42 -72
3 -44 -4 42 -29 8 5 -19
32 6 -14 -34 -1 9 8 3
27 13 78 -53 3 23 7 -42
15 -8 -27 -35 -27 16 0 14
-29 -37 -112 94 11 24 -127 -27
37 -3 65 24 91 -26 -37 63
5 -14 11 -31 -59 -38 -7 98
-7 49 -59 -13 127 5 42 -10
-28 -65 16 8 -20 -11 -40 22
-9 29 -4 42 4 1 84 19
-47 17 0 63 7 45 62 -117
34 28 -62 -43 -10 -1 14 -1
18 -11 -123 -17 -20 -25 18 -20
17 -25 -19 16 -50 -33 -1 12
12 23 26 9 -53 19 -127 -17
-44 -52 62 65 -39 -59 -44 24
43 34 -42 39 -49 -17 25 -20
-8 -48 -30 13 27 -59 70 -1
11 32 -19 32 30 -26 -106 -120
-16 59 -13 62 -21 -38 -22 53
38 41 -115 24 -11 -22 -33 -33
45 21 10 21 -2 -3 -30 -46
26 -46 -127 11 -20 -32 40 66
-67 -37 70 48 41 -35 41 14
-51 4 108 -11 62 36 82 -13
-127 -8 -99 -4 -27 -63 57 55

model_1/block_5_depthwise_BN/FusedBatchNormV3;model_1/block_5_depthwise/depthwise;model_1/block_6_expand/Conv2D i1 [1, 3, 3, 48]
00000000: 6729 3609 8dc3 2e14 9420 f452 2a6d 1705
00000010: 34c0 3e33 44fa 46f7 d981 f705 349d fc30
00000020: 1a8c f020 e249 e7b2 d4e6 d2d4 078b d3b9
00000030: 300b 2b8f e154 19e8 81ce 001b f60d 81e1
00000040: fd3e 237f f97f 180d 7488 f181 8130 bf7f
00000050: 18aa ec7f 0333 bf81 107f 0120 cd81 f4f8
00000060: 7a0a 3a8c e0e0 3624 9e81 9426 1a78 0cac
00000070: d2ef 1331 e5ed 64ef f788 d0e7 fd04 c542
00000080: 42ab 3c25 1685 0ca4 d1ec 47d3 f4b2 9deb
00000090: 7fff 147f 531d fe81 4516 81c8 064f c07f
000000a0: 8135 222f 1d39 5ccf 0152 5009 53bf 9e41
000000b0: 443b a9fe 81d5 07b1 c6f3 ea81 202e 29ff
000000c0: 057f 813a c22b 8111 4ffc e37f 817f e4e1
000000d0: 3181 8111 4723 8181 cd2f 0fcc f0d1 35ee
000000e0: 7fe5 3f91 1f9c 7f59 7f34 acf8 3337 81fa
000000f0: 6607 0697 7f1c 02c8 64a2 9ada 0326 bb12
103 41 54 9 -115 -61 46 20
-108 32 -12 82 42 109 23 5
52 -64 62 51 68 -6 70 -9
-39 -127 -9 5 52 -99 -4 48
26 -116 -16 32 -30 73 -25 -78
-44 -26 -46 -44 7 -117 -45 -71
48 11 43 -113 -31 84 25 -24
-127 -50 0 27 -10 13 -127 -31
-3 62 35 127 -7 127 24 13
116 -120 -15 -127 -127 48 -65 127
24 -86 -20 127 3 51 -65 -127
16 127 1 32 -51 -127 -12 -8
122 10 58 -116 -32 -32 54 36
-98 -127 -108 38 26 120 12 -84
-46 -17 19 49 -27 -19 100 -17
-9 -120 -48 -25 -3 4 -59 66
66 -85 60 37 22 -123 12 -92
-47 -20 71 -45 -12 -78 -99 -21
127 -1 20 127 83 29 -2 -127
69 22 -127 -56 6 79 -64 127
-127 53 34 47 29 57 92 -49
1 82 80 9 83 -65 -98 65
68 59 -87 -2 -127 -43 7 -79
-58 -13 -22 -127 32 46 41 -1
5 127 -127 58 -62 43 -127 17
79 -4 -29 127 -127 127 -28 -31
49 -127 -127 17 71 35 -127 -127
-51 47 15 -52 -16 -47 53 -18
127 -27 63 -111 31 -100 127 89
127 52 -84 -8 51 55 -127 -6
102 7 6 -105 127 28 2 -56
100 -94 -102 -38 3 38 -69 18

model_1/block_5_expand/Conv2D i1 [48, 1, 1, 8]
00000000: f1f1 e67f f0d3 b182 7feb 2def 0fc5 061c
00000010: f81b 0381 2e58 bc40 017f a48c aaf6 12e1
00000020: ecda 8195 23ae db82 129a 7460 1f57 7fa0
00000030: d708 f60a 200f 81d9 f8d7 1326 ed35 7f39
00000040: f828 abf7 f7d3 8142 7f01 9b8b fe71 8e73
00000050: db7d 5756 617f ccb5 ecb9 d338 81f9 c2c3
00000060: c303 49e7 05de 81e0 3719 dc81 ffea de58
00000070: 99c9 0202 5514 0c81 1d62 6e6c 7b7f cd96
00000080: 4a28 ff97 283c e27f 8155 9742 d355 9a48
00000090: 8136 2efb c412 dff8 7fe2 c8d9 44ce 4aa0
000000a0: 7fa3 5afc b914 7a15 1dec f231 ee04 7f38
000000b0: 5d29 a581 fc63 fd62 bc2d b19e 261d 81fc
000000c0: 5e81 879c 4f44 bb1b d2a5 1dbe 526e 1b81
000000d0: 11bb 5460 4ca2 b181 06e9 146c 16de f67f
000000e0: e02c f52b 2e82 2c7f db3b 7fe5 28be 4639
000000f0: 2a9a 0416 d581 6001 1927 22f6 e7ba 8116
-15 -15 -26 127 -16 -45 -79 -126
127 -21 45 -17 15 -59 6 28
-8 27 3 -127 46 88 -68 64
1 127 -92 -116 -86 -10 18 -31
-20 -38 -127 -107 35 -82 -37 -126
18 -102 116 96 31 87 127 -96
-41 8 -10 10 32 15 -127 -39
-8 -41 19 38 -19 53 127 57
-8 40 -85 -9 -9 -45 -127 66
127 1 -101 -117 -2 113 -114 115
-37 125 87 86 97 127 -52 -75
-20 -71 -45 56 -127 -7 -62 -61
-61 3 73 -25 5 -34 -127 -32
55 25 -36 -127 -1 -22 -34 88
-103 -55 2 2 85 20 12 -127
29 98 110 108 123 127 -51 -106
74 40 -1 -105 40 60 -30 127
-127 85 -105 66 -45 85 -102 72
-127 54 46 -5 -60 18 -33 -8
127 -30 -56 -39 68 -50 74 -96
127 -93 90 -4 -71 20 122 21
29 -20 -14 49 -18 4 127 56
93 41 -91 -127 -4 99 -3 98
-68 45 -79 -98 38 29 -127 -4
94 -127 -121 -100 79 68 -69 27
-46 -91 29 -66 82 110 27 -127
17 -69 84 96 76 -94 -79 -127
6 -23 20 108 22 -34 -10 127
-32 44 -11 43 46 -126 44 127
-37 59 127 -27 40 -66 70 57
42 -102 4 22 -43 -127 96 1
25 39 34 -10 -25 -70 -127 22

model_1/block_4_project/Conv2D i1 [8, 1, 1, 48]
00000000: 7fe9 fce9 fcaa a8f2 48c8 e8df f858 d4f4
00000010: 2504 ff14 07e0 08f5 1f1a 023a 123d e6c9
00000020: 08b6 ecf2 2bf2 ff05 cce9 fcd4 bdbb 00d7
00000030: 9cf2 47c3 2f1b 4810 e84b e45f 0dd1 81d7
00000040: 93a5 62f3 195e c4fb 2da3 1c1f 2e9d 0f0e
00000050: 123f b2e0 8db1 2437 11ef ba50 dcc5 9024
00000060: 402a f3c4 beff 1ed5 d91f 86ea e619 b531
00000070: de21 30f5 3f2a 030f 9706 1ca3 eff7 22b2
00000080: 39ef 1305 c8c3 0e30 819d e7d4 e3b6 1311
00000090: 1710 2809 81d7 3643 d1b6 cc57 08d3 91c6
000000a0: e7ea 2dc2 b563 f7ce 0715 46cb 1023 4203
000000b0: 3116 4542 354a 2fe6 fbc7 e3d5 fa0e 1713
000000c0: ff1d 8c0f f27b b52d bc7f 6a28 16b1 fc1a
000000d0: ce12 022d d23c 8821 f7f2 7037 4614 6a7c
000000e0: ec1e 39cc 8313 1bc0 1a1f 3226 531f 1250
000000f0: ddf6 0c02 30c6 e1e2 fbe0 09da 1f03 0511
127 -23 -4 -23 -4 -86 -88 -14
72 -56 -24 -33 -8 88 -44 -12
37 4 -1 20 7 -32 8 -11
31 26 2 58 18 61 -26 -55
8 -74 -20 -14 43 -14 -1 5
-52 -23 -4 -44 -67 -69 0 -41
-100 -14 71 -61 47 27 72 16
-24 75 -28 95 13 -47 -127 -41
-109 -91 98 -13 25 94 -60 -5
45 -93 28 31 46 -99 15 14
18 63 -78 -32 -115 -79 36 55
17 -17 -70 80 -36 -59 -112 36
64 42 -13 -60 -66 -1 30 -43
-39 31 -122 -22 -26 25 -75 49
-34 33 48 -11 63 42 3 15
-105 6 28 -93 -17 -9 34 -78
57 -17 19 5 -56 -61 14 48
-127 -99 -25 -44 -29 -74 19 17
23 16 40 9 -127 -41 54 67
-47 -74 -52 87 8 -45 -111 -58
-25 -22 45 -62 -75 99 -9 -50
7 21 70 -53 16 35 66 3
49 22 69 66 53 74 47 -26
-5 -57 -29 -43 -6 14 23 19
-1 29 -116 15 -14 123 -75 45
-68 127 106 40 22 -79 -4 26
-50 18 2 45 -46 60 -120 33
-9 -14 112 55 70 20 106 124
-20 30 57 -52 -125 19 27 -64
26 31 50 38 83 31 18 80
-35 -10 12 2 48 -58 -31 -30
-5 -32 9 -38 31 3 5 17

model_1/block_4_depthwise_BN/FusedBatchNormV3;model_1/block_4_depthwise/depthwise;model_1/block_6_expand/Conv2D i1 [1, 3, 3, 48]
00000000: 81e1 3731 9a06 9bee 1e7f 7fea f33f d613
00000010: 0508 22e2 a7f0 e51a b8fb dba9 3881 5d09
00000020: ef5f 7fdc 3c88 f460 e016 ea32 f8f1 ed1c
00000030: dc93 f644 a240 a6f8 191e 3a0a daf7 81cb
00000040: b9e7 5b48 361b 981e ade3 f381 1ff8 ccc5
00000050: 1826 e881 f632 3855 7fcb e37f 1381 e5fe
00000060: 8d0b 72d3 d751 d1dc 1930 52cc d127 f62d
00000070: fec6 e23b 9bd7 3ff4 d80a 16bb f78b 44eb
00000080: 2a15 8ce9 54b8 4c56 e312 bf45 110e 0949
00000090: 3c25 fe7f d3e2 36e2 cc4b 0e04 f6b8 b544
000000a0: 90ee 114e d62a 81d7 f286 e7d4 7f10 2e7f
000000b0: 815c 7a02 1647 b981 4112 091c 8f0e df9f
000000c0: 570c 8189 697f 057f 81a8 a131 d7b4 e381
000000d0: 8e81 a876 7a7f e152 de35 a951 c018 81d7
000000e0: 0c7f b11d 8117 7fc4 d77f 818c 7f1a 81ac
000000f0: 5922 7bfb fcb9 0ecd df11 ecbf e681 ba4a
-127 -31 55 49 -102 6 -101 -18
30 127 127 -22 -13 63 -42 19
5 8 34 -30 -89 -16 -27 26
-72 -5 -37 -87 56 -127 93 9
-17 95 127 -36 60 -120 -12 96
-32 22 -22 50 -8 -15 -19 28
-36 -109 -10 68 -94 64 -90 -8
25 30 58 10 -38 -9 -127 -53
-71 -25 91 72 54 27 -104 30
-83 -29 -13 -127 31 -8 -52 -59
24 38 -24 -127 -10 50 56 85
127 -53 -29 127 19 -127 -27 -2
-115 11 114 -45 -41 81 -47 -36
25 48 82 -52 -47 39 -10 45
-2 -58 -30 59 -101 -41 63 -12
-40 10 22 -69 -9 -117 68 -21
42 21 -116 -23 84 -72 76 86
-29 18 -65 69 17 14 9 73
60 37 -2 127 -45 -30 54 -30
-52 75 14 4 -10 -72 -75 68
-112 -18 17 78 -42 42 -127 -41
-14 -122 -25 -44 127 16 46 127
-127 92 122 2 22 71 -71 -127
65 18 9 28 -113 14 -33 -97
87 12 -127 -119 105 127 5 127
-127 -88 -95 49 -41 -76 -29 -127
-114 -127 -88 118 122 127 -31 82
-34 53 -87 81 -64 24 -127 -41
12 127 -79 29 -127 23 127 -60
-41 127 -127 -116 127 26 -127 -84
89 34 123 -5 -4 -71 14 -51
-33 17 -20 -65 -26 -127 -70 74

model_1/block_4_expand/Conv2D i1 [48, 1, 1, 8]
00000000: 41c2 58f4 0e81 22e5 e9b0 b0ee 8135 e7e8
00000010: 45d2 2fe8 7f11 0f36 0b41 f07f 221e dcc7
00000020: e47f 590e 0531 c601 c838 1a1f 7fdf 6512
00000030: fdda 0418 487f 06ff f3e4 272b 4411 a17f
00000040: b696 f1c2 1024 81db 811f a807 63eb 9df1
00000050: 1892 00e8 f29c 81da 247f 0520 e5c8 0c71
00000060: f1e5 b301 de7f 201c d1ac aa01 df7f 0a67
00000070: ce59 8147 543f ac48 eff4 0b26 5262 9381
00000080: 0f81 92bd bc53 fbf9 1767 bbda c42e 5c81
00000090: a181 f3b7 4bed cd50 ea51 d93c 2b81 9c25
000000a0: 7fde 15d2 edee 064a 4ab3 5c6a d57f 4fc5
000000b0: c12f f5f7 7fc5 e8b0 62d0 707f 06b0 43ff
000000c0: cd3a 7fe1 ebed 1dff ce9a 3f2a 1b25 da7f
000000d0: 58d7 81f3 ac14 3570 117f 9495 f815 16a8
000000e0: f515 c4b4 2acc 819e 8141 87f1 353c a0f7
000000f0: 56e8 120a 977f 473c bf3b cf7f 77c9 f103
65 -62 88 -12 14 -127 34 -27
-23 -80 -80 -18 -127 53 -25 -24
69 -46 47 -24 127 17 15 54
11 65 -16 127 34 30 -36 -57
-28 127 89 14 5 49 -58 1
-56 56 26 31 127 -33 101 18
-3 -38 4 24 72 127 6 -1
-13 -28 39 43 68 17 -95 127
-74 -106 -15 -62 16 36 -127 -37
-127 31 -88 7 99 -21 -99 -15
24 -110 0 -24 -14 -100 -127 -38
36 127 5 32 -27 -56 12 113
-15 -27 -77 1 -34 127 32 28
-47 -84 -86 1 -33 127 10 103
-50 89 -127 71 84 63 -84 72
-17 -12 11 38 82 98 -109 -127
15 -127 -110 -67 -68 83 -5 -7
23 103 -69 -38 -60 46 92 -127
-95 -127 -13 -73 75 -19 -51 80
-22 81 -39 60 43 -127 -100 37
127 -34 21 -46 -19 -18 6 74
74 -77 92 106 -43 127 79 -59
-63 47 -11 -9 127 -59 -24 -80
98 -48 112 127 6 -80 67 -1
-51 58 127 -31 -21 -19 29 -1
-50 -102 63 42 27 37 -38 127
88 -41 -127 -13 -84 20 53 112
17 127 -108 -107 -8 21 22 -88
-11 21 -60 -76 42 -52 -127 -98
-127 65 -121 -15 53 60 -96 -9
86 -24 18 10 -105 127 71 60
-65 59 -49 127 119 -55 -15 3

model_1/block_3_project/Conv2D i1 [8, 1, 1, 48]
00000000: ef1b 0916 f102 0a26 d5f7 dd05 f20f 32f8
00000010: beef 13e7 ee7f e7ec ded5 0912 d61a 17ec
00000020: 0419 2039 2612 1fef 12e3 e6f2 0122 2017
00000030: 1a4f ec27 4336 2770 c5c8 46d4 d2ec 34de
00000040: 03d9 3311 1481 07c3 0b0e e80d e305 d0c2
00000050: c620 1be3 1c2d 39cf 051e 1ad2 d221 0e45
00000060: f218 0e15 1d0f f225 1c11 440f feeb 18e5
00000070: 0d1e fefc 027f fb02 ffce f716 f812 ffd9
00000080: f004 18df 1f02 d6f8 03ec 13e0 f235 1e22
00000090: e23f fe00 0236 38f9 f8fd 0f07 e114 2d27
000000a0: eff9 28fc 2cb4 0f1a f1fb 8134 d6ec ff07
000000b0: d3fb 2312 1bea d6e1 ffe6 1923 1d02 3415
000000c0: 0f06 cafa 1800 0afd edff 0212 fbf9 f008
000000d0: e328 05f3 fe81 fff6 2328 09c8 2205 0107
000000e0: d517 21dd df13 f003 0ec5 a721 2215 08ec
000000f0: 073e 3aea 123d 1281 36ec edf8 4fd0 152f
-17 27 9 22 -15 2 10 38
-43 -9 -35 5 -14 15 50 -8
-66 -17 19 -25 -18 127 -25 -20
-34 -43 9 18 -42 26 23 -20
4 25 32 57 38 18 31 -17
18 -29 -26 -14 1 34 32 23
26 79 -20 39 67 54 39 112
-59 -56 70 -44 -46 -20 52 -34
3 -39 51 17 20 -127 7 -61
11 14 -24 13 -29 5 -48 -62
-58 32 27 -29 28 45 57 -49
5 30 26 -46 -46 33 14 69
-14 24 14 21 29 15 -14 37
28 17 68 15 -2 -21 24 -27
13 30 -2 -4 2 127 -5 2
-1 -50 -9 22 -8 18 -1 -39
-16 4 24 -33 31 2 -42 -8
3 -20 19 -32 -14 53 30 34
-30 63 -2 0 2 54 56 -7
-8 -3 15 7 -31 20 45 39
-17 -7 40 -4 44 -76 15 26
-15 -5 -127 52 -42 -20 -1 7
-45 -5 35 18 27 -22 -42 -31
-1 -26 25 35 29 2 52 21
15 6 -54 -6 24 0 10 -3
-19 -1 2 18 -5 -7 -16 8
-29 40 5 -13 -2 -127 -1 -10
35 40 9 -56 34 5 1 7
-43 23 33 -35 -33 19 -16 3
14 -59 -89 33 34 21 8 -20
7 62 58 -22 18 61 18 -127
54 -20 -19 -8 79 -48 21 47

model_1/block_3_depthwise_BN/FusedBatchNormV3;model_1/block_3_depthwise/depthwise;model_1/block_6_expand/Conv2D i1 [1, 3, 3, 48]
00000000: dc81 b421 b4fc ef09 c645 33d8 e2fa dcf0
00000010: 598a c67f 7f56 f278 aa81 6a54 68ce 3322
00000020: 3885 c9b7 c005 7a2b f987 3d41 2b5b 93c1
00000030: 8190 da2d cce2 9d0c ea36 3df7 ce3a e144
00000040: 798e 9e28 484c 6e75 d0a2 7f3c 60cf 252f
00000050: 6781 8181 d8dd 3c5b 4992 4b61 d638 81de
00000060: b99e 051f faf5 ee09 c026 09d6 1e1d def1
00000070: 7f81 a302 4d81 faeb f48b 3bee 2fc3 7f4b
00000080: 7fb5 aec7 f433 fa3a f791 353b 5151 ddf2
00000090: fd8c ca03 81c6 a40c 817d 4a81 e40b 8f45
000000a0: 73cb 9450 686d 007f 8196 4f7f 6ea4 3b15
000000b0: 389b 04c6 81b2 7f24 81a4 1955 616f 9be2
000000c0: 97d0 cee4 b0da 9ff8 967f 7fa3 817f c67f
000000d0: 4091 81f4 2635 7f64 a1d4 682f 56c6 117f
000000e0: 28b5 eac1 bc81 627f bf81 7f45 010a 83e5
000000f0: 07e4 8181 03d0 e508 f24a 3cf4 de44 c224
-36 -127 -76 33 -76 -4 -17 9
-58 69 51 -40 -30 -6 -36 -16
89 -118 -58 127 127 86 -14 120
-86 -127 106 84 104 -50 51 34
56 -123 -55 -73 -64 5 122 43
-7 -121 61 65 43 91 -109 -63
-127 -112 -38 45 -52 -30 -99 12
-22 54 61 -9 -50 58 -31 68
121 -114 -98 40 72 76 110 117
-48 -94 127 60 96 -49 37 47
103 -127 -127 -127 -40 -35 60 91
73 -110 75 97 -42 56 -127 -34
-71 -98 5 31 -6 -11 -18 9
-64 38 9 -42 30 29 -34 -15
127 -127 -93 2 77 -127 -6 -21
-12 -117 59 -18 47 -61 127 75
127 -75 -82 -57 -12 51 -6 58
-9 -111 53 59 81 81 -35 -14
-3 -116 -54 3 -127 -58 -92 12
-127 125 74 -127 -28 11 -113 69
115 -53 -108 80 104 109 0 127
-127 -106 79 127 110 -92 59 21
56 -101 4 -58 -127 -78 127 36
-127 -92 25 85 97 111 -101 -30
-105 -48 -50 -28 -80 -38 -97 -8
-106 127 127 -93 -127 127 -58 127
64 -111 -127 -12 38 53 127 100
-95 -44 104 47 86 -58 17 127
40 -75 -22 -63 -68 -127 98 127
-65 -127 127 69 1 10 -125 -27
7 -28 -127 -127 3 -48 -27 8
-14 74 60 -12 -34 68 -62 36

model_1/block_3_expand/Conv2D i1 [48, 1, 1, 8]
00000000: 0846 a57f 3a77 1d05 3681 afe7 fc2f 2f05
00000010: bd21 f4a1 f181 17b1 d37f 5204 ff83 ed22
00000020: 81fb 983f 09f1 cbce 7fdc c008 2dd8 4f02
00000030: 2dbe ba14 a3de cd7f e898 d6d6 45d4 e37f
00000040: 4223 b981 5f97 8e87 8f4a fd43 d77f 71cc
00000050: e3f8 7681 c74a 2d24 5deb 7508 cf28 4a7f
00000060: 3829 37d3 417f 6d8e 303f ed4b ff81 e33a
00000070: fa81 d6ee 0c29 0be9 81de dcbc 747e 9a2e
00000080: fcda 78ee dd22 7f61 3a06 41f5 af95 c781
00000090: 81fd ab09 05d3 23d2 30c3 5af0 aeea 7f55
000000a0: ff7f 1ffd 013a 2e06 ce34 6193 0d7f 03fb
000000b0: 4df7 3f07 c1f6 7f43 a978 222b b525 9a7f
000000c0: c4d7 3a02 815f 0292 d614 3112 8131 c5ff
000000d0: d481 12df 091a feff ec4c 2c34 d27f c4e7
000000e0: f0b7 3412 2a7f 1540 1f7f f414 a5d1 f127
000000f0: d75c 5a48 81c0 d6be 122c 0934 cce4 2d81
8 70 -91 127 58 119 29 5
54 -127 -81 -25 -4 47 47 5
-67 33 -12 -95 -15 -127 23 -79
-45 127 82 4 -1 -125 -19 34
-127 -5 -104 63 9 -15 -53 -50
127 -36 -64 8 45 -40 79 2
45 -66 -70 20 -93 -34 -51 127
-24 -104 -42 -42 69 -44 -29 127
66 35 -71 -127 95 -105 -114 -121
-113 74 -3 67 -41 127 113 -52
-29 -8 118 -127 -57 74 45 36
93 -21 117 8 -49 40 74 127
56 41 55 -45 65 127 109 -114
48 63 -19 75 -1 -127 -29 58
-6 -127 -42 -18 12 41 11 -23
-127 -34 -36 -68 116 126 -102 46
-4 -38 120 -18 -35 34 127 97
58 6 65 -11 -81 -107 -57 -127
-127 -3 -85 9 5 -45 35 -46
48 -61 90 -16 -82 -22 127 85
-1 127 31 -3 1 58 46 6
-50 52 97 -109 13 127 3 -5
77 -9 63 7 -63 -10 127 67
-87 120 34 43 -75 37 -102 127
-60 -41 58 2 -127 95 2 -110
-42 20 49 18 -127 49 -59 -1
-44 -127 18 -33 9 26 -2 -1
-20 76 44 52 -46 127 -60 -25
-16 -73 52 18 42 127 21 64
31 127 -12 20 -91 -47 -15 39
-41 92 90 72 -127 -64 -42 -66
18 44 9 52 -52 -28 45 -127

model_1/block_2_project/Conv2D i1 [8, 1, 1, 48]
00000000: d31d edd5 da17 fc16 3400 081a 1111 e304
00000010: db00 efdd e20e e905 11fb 5bf3 f6c4 f30e
00000020: f012 7fe9 f1e4 20d4 18ea f8f5 f412 f2ae
00000030: 0cf1 ef4d 07eb 152b 3e5d 21b9 d12f f909
00000040: fff0 17d4 cb25 d525 571b f009 2105 7f0a
00000050: efd1 e3f2 f4f8 faed 02ef 1917 ec0a 2f20
00000060: df09 dd6a bcf6 0dd9 d21e 1a9b f501 dae6
00000070: 7f20 0ccd f7f1 f318 43fb 58d8 2a06 d2ef
00000080: 03d6 17ff f30e 0fac 2fd6 d8b1 c0b1 d56e
00000090: 2db6 18df 35c9 0a9c 34cd fff4 94c5 0515
000000a0: 1af3 35e0 0429 a3fa 58ea 2c1d 01e1 f7e9
000000b0: da35 18ea cb26 1307 7f13 d91d eb2a 19c9
000000c0: ea05 0efe f525 f2ee 2ffb 04d6 fd0e b00b
000000d0: f204 34fd d913 071f 2ae0 e025 3ef1 eb27
000000e0: f6f3 0d0d 82fe 2301 12e5 e719 e932 c181
000000f0: d196 456f d81a ce72 ac40 2f23 b019 4ab2
-45 29 -19 -43 -38 23 -4 22
52 0 8 26 17 17 -29 4
-37 0 -17 -35 -30 14 -23 5
17 -5 91 -13 -10 -60 -13 14
-16 18 127 -23 -15 -28 32 -44
24 -22 -8 -11 -12 18 -14 -82
12 -15 -17 77 7 -21 21 43
62 93 33 -71 -47 47 -7 9
-1 -16 23 -44 -53 37 -43 37
87 27 -16 9 33 5 127 10
-17 -47 -29 -14 -12 -8 -6 -19
2 -17 25 23 -20 10 47 32
-33 9 -35 106 -68 -10 13 -39
-46 30 26 -101 -11 1 -38 -26
127 32 12 -51 -9 -15 -13 24
67 -5 88 -40 42 6 -46 -17
3 -42 23 -1 -13 14 15 -84
47 -42 -40 -79 -64 -79 -43 110
45 -74 24 -33 53 -55 10 -100
52 -51 -1 -12 -108 -59 5 21
26 -13 53 -32 4 41 -93 -6
88 -22 44 29 1 -31 -9 -23
-38 53 24 -22 -53 38 19 7
127 19 -39 29 -21 42 25 -55
-22 5 14 -2 -11 37 -14 -18
47 -5 4 -42 -3 14 -80 11
-14 4 52 -3 -39 19 7 31
42 -32 -32 37 62 -15 -21 39
-10 -13 13 13 -126 -2 35 1
18 -27 -25 25 -23 50 -63 -127
-47 -106 69 111 -40 26 -50 114
-84 64 47 35 -80 25 74 -78

model_1/block_2_depthwise_BN/FusedBatchNormV3;model_1/block_2_depthwise/depthwise;model_1/block_6_expand/Conv2D i1 [1, 3, 3, 48]
00000000: a029 ddcd f7ed 06e3 eacf f920 ed85 812f
00000010: 49f3 5d10 8cbc 7faf fdd5 0930 0315 d37f
00000020: 0cf7 0a20 eefc fc03 3eba e81d 2d81 f7f9
00000030: d881 4491 e3df d278 79ad 042a 0681 b703
00000040: cafa 008c cb02 366f 2532 2152 2f05 d1ae
00000050: 9d27 05f7 5ca8 28e5 0381 e0fb 4a52 3bee
00000060: a9e8 0bf8 e71c 1236 fd1a ff0b 172d 0635
00000070: 30fc fe08 812b fdc7 0878 1fe6 0219 ebe1
00000080: 0efc 04da d37f ecf6 4ee9 11c5 3a2e 11e5
00000090: 00de 9f02 d82d e3f8 fda8 f98b e119 937f
000000a0: 7ffb 7f66 be67 737f 13ce d7e1 34cb f99a
000000b0: 19e0 e21c f0c0 2310 1977 e2fa a26d 24e4
000000c0: 8143 7f7f 7f81 81f2 fc81 8181 7f26 0e58
000000d0: 0581 c081 47ef cb9d 7ff8 7fad 7f7f cb41
000000e0: 8181 7f93 7fbb 8181 0645 a10c 81a9 7f7f
000000f0: e3f4 172a 1d67 ff3b 5317 2fb2 f816 e10d
-96 41 -35 -51 -9 -19 6 -29
-22 -49 -7 32 -19 -123 -127 47
73 -13 93 16 -116 -68 127 -81
-3 -43 9 48 3 21 -45 127
12 -9 10 32 -18 -4 -4 3
62 -70 -24 29 45 -127 -9 -7
-40 -127 68 -111 -29 -33 -46 120
121 -83 4 42 6 -127 -73 3
-54 -6 0 -116 -53 2 54 111
37 50 33 82 47 5 -47 -82
-99 39 5 -9 92 -88 40 -27
3 -127 -32 -5 74 82 59 -18
-87 -24 11 -8 -25 28 18 54
-3 26 -1 11 23 45 6 53
48 -4 -2 8 -127 43 -3 -57
8 120 31 -26 2 25 -21 -31
14 -4 4 -38 -45 127 -20 -10
78 -23 17 -59 58 46 17 -27
0 -34 -97 2 -40 45 -29 -8
-3 -88 -7 -117 -31 25 -109 127
127 -5 127 102 -66 103 115 127
19 -50 -41 -31 52 -53 -7 -102
25 -32 -30 28 -16 -64 35 16
25 119 -30 -6 -94 109 36 -28
-127 67 127 127 127 -127 -127 -14
-4 -127 -127 -127 127 38 14 88
5 -127 -64 -127 71 -17 -53 -99
127 -8 127 -83 127 127 -53 65
-127 -127 127 -109 127 -69 -127 -127
6 69 -95 12 -127 -87 127 127
-29 -12 23 42 29 103 -1 59
83 23 47 -78 -8 22 -31 13

model_1/block_2_expand/Conv2D i1 [48, 1, 1, 8]
00000000: 9ee2 128d 8176 0bad 5a15 0be3 f740 8117
00000010: b51a 8754 a17f 0d17 7fcc dc38 12ce 2769
00000020: c5f5 050f ead6 7ff9 f87f 4bc6 bb9e 53ba
00000030: f4c7 397f 0f8c ba03 7f0e 3519 a61e 3576
00000040: c481 4f17 6ed2 f90c a581 0dc9 090b ab6f
00000050: 8db0 394c 687f f018 d1ab d7fd f41c 0a7f
00000060: 4cf8 7fa6 2285 6ff4 31f1 097f 0d23 2fba
00000070: fde9 27f1 7f06 1635 9a7f 5674 6722 db53
00000080: 05e4 b481 c92e f84f 1f7f fc50 d2d7 f9fa
00000090: ee0a 0081 e6cf 28f0 16e9 81c0 a56d 5dc4
000000a0: 1a10 21eb 7f1c 1fdf 819d caae 3505 000c
000000b0: cbd2 367f 0ffe d657 1b0e ce4d 4e37 0f7f
000000c0: 7fff abda e3f6 40ea 17f1 c3f9 3ed2 81ba
000000d0: 7ff0 35e5 ab2a 2b58 3cee de7f 1ff0 e8ce
000000e0: 927f 7758 62e9 c62f 160b 270b b4fb 7f41
000000f0: d0d1 3cb5 cb7f 3345 3d27 4a03 a83a 677f
-98 -30 18 -115 -127 118 11 -83
90 21 11 -29 -9 64 -127 23
-75 26 -121 84 -95 127 13 23
127 -52 -36 56 18 -50 39 105
-59 -11 5 15 -22 -42 127 -7
-8 127 75 -58 -69 -98 83 -70
-12 -57 57 127 15 -116 -70 3
127 14 53 25 -90 30 53 118
-60 -127 79 23 110 -46 -7 12
-91 -127 13 -55 9 11 -85 111
-115 -80 57 76 104 127 -16 24
-47 -85 -41 -3 -12 28 10 127
76 -8 127 -90 34 -123 111 -12
49 -15 9 127 13 35 47 -70
-3 -23 39 -15 127 6 22 53
-102 127 86 116 103 34 -37 83
5 -28 -76 -127 -55 46 -8 79
31 127 -4 80 -46 -41 -7 -6
-18 10 0 -127 -26 -49 40 -16
22 -23 -127 -64 -91 109 93 -60
26 16 33 -21 127 28 31 -33
-127 -99 -54 -82 53 5 0 12
-53 -46 54 127 15 -2 -42 87
27 14 -50 77 78 55 15 127
127 -1 -85 -38 -29 -10 64 -22
23 -15 -61 -7 62 -46 -127 -70
127 -16 53 -27 -85 42 43 88
60 -18 -34 127 31 -16 -24 -50
-110 127 119 88 98 -23 -58 47
22 11 39 11 -76 -5 127 65
-48 -47 60 -75 -53 127 51 69
61 39 74 3 -88 58 103 127

model_1/block_1_project/Conv2D i1 [8, 1, 1, 48]
00000000: d522 f6f0 d0e1 af2f f310 3428 2200 eb1b
00000010: ee31 f89e 2532 810b f2fe d426 01f8 0612
00000020: 03e2 2a11 ff74 b4de f40b df11 fcff 2407
00000030: c68e ac05 32f2 8c51 ebd5 d8ab e23a f8d6
00000040: 7f8d e8df c70b f3ec 11f2 e3cd 24e7 8ef2
00000050: 21d1 81a7 1813 a601 0122 073b ebff f424
00000060: 11af 1058 620e 5bf8 dbda eef1 fedf 2b1a
00000070: f9a6 34c4 fecf e800 b640 4e95 e307 ded2
00000080: 0e00 acd9 e87f 55db ece9 eb9f 3e31 24f2
00000090: 0e15 19e0 2710 14aa 1214 06ee 14a9 d504
000000a0: e012 fc0b 0335 810c 07ab 1437 29d6 e930
000000b0: 1315 12ca adce 0d0c 1314 0703 ef03 f9ce
000000c0: 2ab6 054d 58fd faff eade 23e7 4a30 f50f
000000d0: e3b6 4129 18ba 7f03 c40d ebf5 f1fb b5d3
000000e0: 5be7 c6cd bed1 f202 c66b f80b 3a44 2a0a
000000f0: c6e7 f634 f006 fad7 e0db 010d fc07 c61b
-43 34 -10 -16 -48 -31 -81 47
-13 16 52 40 34 0 -21 27
-18 49 -8 -98 37 50 -127 11
-14 -2 -44 38 1 -8 6 18
3 -30 42 17 -1 116 -76 -34
-12 11 -33 17 -4 -1 36 7
-58 -114 -84 5 50 -14 -116 81
-21 -43 -40 -85 -30 58 -8 -42
127 -115 -24 -33 -57 11 -13 -20
17 -14 -29 -51 36 -25 -114 -14
33 -47 -127 -89 24 19 -90 1
1 34 7 59 -21 -1 -12 36
17 -81 16 88 98 14 91 -8
-37 -38 -18 -15 -2 -33 43 26
-7 -90 52 -60 -2 -49 -24 0
-74 64 78 -107 -29 7 -34 -46
14 0 -84 -39 -24 127 85 -37
-20 -23 -21 -97 62 49 36 -14
14 21 25 -32 39 16 20 -86
18 20 6 -18 20 -87 -43 4
-32 18 -4 11 3 53 -127 12
7 -85 20 55 41 -42 -23 48
19 21 18 -54 -83 -50 13 12
19 20 7 3 -17 3 -7 -50
42 -74 5 77 88 -3 -6 -1
-22 -34 35 -25 74 48 -11 15
-29 -74 65 41 24 -70 127 3
-60 13 -21 -11 -15 -5 -75 -45
91 -25 -58 -51 -66 -47 -14 2
-58 107 -8 11 58 68 42 10
-58 -25 -10 52 -16 6 -6 -41
-32 -37 1 13 -4 7 -58 27

model_1/block_1_depthwise_BN/FusedBatchNormV3;model_1/block_1_depthwise/depthwise;model_1/block_6_expand/Conv2D i1 [1, 3, 3, 48]
00000000: 1cd8 afbe f498 2595 6004 4e35 9944 4e90
00000010: 34a0 1699 81f8 2773 1d41 e440 8104 7fad
00000020: bdc4 1049 8158 7f4f bfa8 05fe b2d5 0fb4
00000030: 7bc4 507f 3428 7f81 a250 3051 004c 4072
00000040: 3f96 c881 4f9f 350a 7f7f df5e 026d 44b9
00000050: 247b 7f7f cd62 69eb 4b3d 0267 7f6d f902
00000060: fedd f4d5 034b 1ba4 fe2b d22d 50e9 be05
00000070: 21cf 55c5 0d0b abb8 2cf6 e41b 361b 0cf3
00000080: f8d3 2519 f522 42d5 c27f 313c c1a7 fb6b
00000090: 3e4c 8131 9c81 1390 7fad 7f97 3b7f 7f7f
000000a0: d474 139e 77d5 347f f4ff e218 be6f 2aa1
000000b0: 81a8 ae48 f25c 727f c3b2 d431 eadf 8f81
000000c0: 7f7f 7c0b 810f 629e 9281 6281 0b72 518d
000000d0: ed7f 7f91 ce81 4dee 2a07 8156 f67f 6a81
000000e0: 627f bf1e 097f 69e3 76fd fc7f e07f 7f3b
000000f0: 0838 fc2b e458 3583 e49b beb9 81d9 9300
28 -40 -81 -66 -12 -104 37 -107
96 4 78 53 -103 68 78 -112
52 -96 22 -103 -127 -8 39 115
29 65 -28 64 -127 4 127 -83
-67 -60 16 73 -127 88 127 79
-65 -88 5 -2 -78 -43 15 -76
123 -60 80 127 52 40 127 -127
-94 80 48 81 0 76 64 114
63 -106 -56 -127 79 -97 53 10
127 127 -33 94 2 109 68 -71
36 123 127 127 -51 98 105 -21
75 61 2 103 127 109 -7 2
-2 -35 -12 -43 3 75 27 -92
-2 43 -46 45 80 -23 -66 5
33 -49 85 -59 13 11 -85 -72
44 -10 -28 27 54 27 12 -13
-8 -45 37 25 -11 34 66 -43
-62 127 49 60 -63 -89 -5 107
62 76 -127 49 -100 -127 19 -112
127 -83 127 -105 59 127 127 127
-44 116 19 -98 119 -43 52 127
-12 -1 -30 24 -66 111 42 -95
-127 -88 -82 72 -14 92 114 127
-61 -78 -44 49 -22 -33 -113 -127
127 127 124 11 -127 15 98 -98
-110 -127 98 -127 11 114 81 -115
-19 127 127 -111 -50 -127 77 -18
42 7 -127 86 -10 127 106 -127
98 127 -65 30 9 127 105 -29
118 -3 -4 127 -32 127 127 59
8 56 -4 43 -28 88 53 -125
-28 -101 -66 -71 -127 -39 -109 0

model_1/block_1_expand/Conv2D i1 [48, 1, 1, 8]
00000000: fb25 0ce4 53f6 7f05 7f1e 5805 f4fc fd5b
00000010: a819 007f 04d5 ea2d 3cf0 81fb ffc1 0c7b
00000020: cd39 81f6 fc0c cfdf 7ff8 eede 06db 1682
00000030: eef9 fbed 81d4 4913 fcac fbed f00e 81f4
00000040: d932 180b 7fe3 b905 7ff5 2c07 fef3 285b
00000050: 7f09 f4df f310 f381 bf01 ee7f 01d9 e714
00000060: b607 b9eb 1031 d181 57fb 7f09 fb08 1d2f
00000070: 8100 0e24 07ee 037c 70ec e886 f602 1a81
00000080: 38c0 7948 f281 0c24 0996 aa78 fe3b 047f
00000090: 2de9 a72c effb 3a7f 0508 fc7f f102 a5e8
000000a0: 6f55 7f8d 02a8 e4ee fa01 f001 81e9 2efd
000000b0: 0e37 03f7 037f fe03 7621 f67f 00e0 d291
000000c0: 81f9 9fd8 18f1 d3b9 f50d e7e5 0e81 0efa
000000d0: 9bdb 810e fefb f4f3 7f0b 54f6 283b 461e
000000e0: 05ca 0014 0181 f925 f7ee 0f81 fb12 11fa
000000f0: c9f6 7fe2 010e f09a ef15 fc0c 7f06 dc08
-5 37 12 -28 83 -10 127 5
127 30 88 5 -12 -4 -3 91
-88 25 0 127 4 -43 -22 45
60 -16 -127 -5 -1 -63 12 123
-51 57 -127 -10 -4 12 -49 -33
127 -8 -18 -34 6 -37 22 -126
-18 -7 -5 -19 -127 -44 73 19
-4 -84 -5 -19 -16 14 -127 -12
-39 50 24 11 127 -29 -71 5
127 -11 44 7 -2 -13 40 91
127 9 -12 -33 -13 16 -13 -127
-65 1 -18 127 1 -39 -25 20
-74 7 -71 -21 16 49 -47 -127
87 -5 127 9 -5 8 29 47
-127 0 14 36 7 -18 3 124
112 -20 -24 -122 -10 2 26 -127
56 -64 121 72 -14 -127 12 36
9 -106 -86 120 -2 59 4 127
45 -23 -89 44 -17 -5 58 127
5 8 -4 127 -15 2 -91 -24
111 85 127 -115 2 -88 -28 -18
-6 1 -16 1 -127 -23 46 -3
14 55 3 -9 3 127 -2 3
118 33 -10 127 0 -32 -46 -111
-127 -7 -97 -40 24 -15 -45 -71
-11 13 -25 -27 14 -127 14 -6
-101 -37 -127 14 -2 -5 -12 -13
127 11 84 -10 40 59 70 30
5 -54 0 20 1 -127 -7 37
-9 -18 15 -127 -5 18 17 -6
-55 -10 127 -30 1 14 -16 -102
-17 21 -4 12 127 6 -36 8

model_1/expanded_conv_project/Conv2D i1 [8, 1, 1, 8]
00000000: e9f9 e609 fd81 0a26 c81a 977f 0436 d82a
00000010: 0dfa 25f8 fc81 144f 2623 377f 0ce3 dffb
00000020: 0d48 1803 81f5 0beb 2ff9 7fa0 14be e6cb
00000030: 1c7f 23e9 25f6 ccfa f0ea def4 f981 101f
-23 -7 -26 9 -3 -127 10 38
-56 26 -105 127 4 54 -40 42
13 -6 37 -8 -4 -127 20 79
38 35 55 127 12 -29 -33 -5
13 72 24 3 -127 -11 11 -21
47 -7 127 -96 20 -66 -26 -53
28 127 35 -23 37 -10 -52 -6
-16 -22 -34 -12 -7 -127 16 31

model_1/expanded_conv_depthwise_BN/FusedBatchNormV3;model_1/expanded_conv_depthwise/depthwise;model_1/block_5_project/Conv2D i1 [1, 3, 3, 8]
00000000: e6f7 0305 131d 0a1c f905 04fe 0a7f 0c7f
00000010: dbff e7fd 1b14 0cfe 1781 fc01 f3fa a8ee
00000020: 8166 ab7f 81f9 7fba f0fd eabe 0b04 40d1
00000030: 19f8 fff6 0fea 0a08 340c 7fe5 0292 13fa
00000040: fa05 e4f7 14ef 15f3
-26 -9 3 5 19 29 10 28
-7 5 4 -2 10 127 12 127
-37 -1 -25 -3 27 20 12 -2
23 -127 -4 1 -13 -6 -88 -18
-127 102 -85 127 -127 -7 127 -70
-16 -3 -22 -66 11 4 64 -47
25 -8 -1 -10 15 -22 10 8
52 12 127 -27 2 -110 19 -6
-6 5 -28 -9 20 -17 21 -13

model_1/Conv1/Conv2D i1 [8, 3, 3, 3]
00000000: 05f9 0d03 e41d 07e5 1423 191b 3b0d 3913
00000010: dc25 e9a4 f5df 81ff f5c7 1126 541b 0e16
00000020: 04e9 c8ec 3a7f 280b 0c02 d390 e023 350d
00000030: 0906 01e3 d0fc 2559 0532 7f0b 0e2a fdc9
00000040: a8dd a9a0 d7de f9ea fa07 02ff 0efc fc09
00000050: f62f e6eb 51e4 d51e f3f1 50d0 d77f d1b2
00000060: 3ae9 e213 f2f8 29ea ea0e f9fb f3e6 fb1b
00000070: 2d0a f0e2 fce1 c1f6 3f7f 12dc c0f8 f3ef
00000080: 0113 17fc f2f0 fdcb c8c9 b190 a5d9 dfdc
00000090: cfa3 bab1 81ad ccc8 d104 07f2 f8f5 f4eb
000000a0: f2f1 9cfb 2d04 18fe 481b f981 df37 0e17
000000b0: ee73 19f0 cef4 1a14 ff0b 2f03 35fe 12ff
000000c0: f318 fafc 16f9 1354 fa18 7fe9 ff3c e5e4
000000d0: ceeb d6cc dfec 03ec
5 -7 13 3 -28 29 7 -27
20 35 25 27 59 13 57 19
-36 37 -23 -92 -11 -33 -127 -1
-11 -57 17 38 84 27 14 22
4 -23 -56 -20 58 127 40 11
12 2 -45 -112 -32 35 53 13
9 6 1 -29 -48 -4 37 89
5 50 127 11 14 42 -3 -55
-88 -35 -87 -96 -41 -34 -7 -22
-6 7 2 -1 14 -4 -4 9
-10 47 -26 -21 81 -28 -43 30
-13 -15 80 -48 -41 127 -47 -78
58 -23 -30 19 -14 -8 41 -22
-22 14 -7 -5 -13 -26 -5 27
45 10 -16 -30 -4 -31 -63 -10
63 127 18 -36 -64 -8 -13 -17
1 19 23 -4 -14 -16 -3 -53
-56 -55 -79 -112 -91 -39 -33 -36
-49 -93 -70 -79 -127 -83 -52 -56
-47 4 7 -14 -8 -11 -12 -21
-14 -15 -100 -5 45 4 24 -2
72 27 -7 -127 -33 55 14 23
-18 115 25 -16 -50 -12 26 20
-1 11 47 3 53 -2 18 -1
-13 24 -6 -4 22 -7 19 84
-6 24 127 -23 -1 60 -27 -28
-50 -21 -42 -52 -33 -20 3 -20
